pretrained_model/model_quant_1.tflite (tflite, 377776 bytes, 8 tensors)

functional_3/dense_2/BiasAdd/ReadVariableOp/resource f4 [257]
0	0x3f0077bb	0.50182694
1	0x3f168d8b	0.5880973
2	0xbc38c5bd	-0.011277613
3	0x3f59544d	0.8489426
4	0x3e12dfda	0.14343205
5	0x3e0340a7	0.12817632
6	0x3d90868d	0.070569135
7	0x3d42f4c1	0.047596697
8	0x3e9db115	0.30799165
9	0x3f9aeb5d	1.2103077
10	0x3eed3f3f	0.46337315
11	0x3f448436	0.7676424
12	0x3f326f29	0.69700867
13	0x3f48991b	0.7835862
14	0x3f1f0f37	0.6213259
15	0x3e555c9c	0.20836109
16	0x3ed2b79f	0.41155717
17	0x3edcd79a	0.4313324
18	0x3db4bcd9	0.08825082
19	0x3dfca9d5	0.123370804
20	0x3e8e729f	0.27821824
21	0x3e642e32	0.22283247
22	0xbe1dc22c	-0.15406102
23	0x3e6fcb31	0.23417355
24	0x3f03b4b6	0.5144762
25	0x3ed4bba5	0.4154941
26	0x3f0a80d7	0.54102844
27	0x3e651570	0.22371459
28	0x3d9ce8a4	0.0766156
29	0x3e2aaf90	0.16668534
30	0x3cfc6652	0.030810509
31	0x3ec2db6e	0.38058037
32	0x3ecfa1ef	0.40553233
33	0x3efa862d	0.48930493
34	0x3eadb04c	0.33923566
35	0x3e6f14b6	0.23347744
36	0x3dbfd659	0.093670554
37	0x3de5681f	0.112015
38	0x3d61d91b	0.05513869
39	0x3ead9153	0.33899936
40	0x3ef17e2b	0.4716657
41	0x3f2bf476	0.6716989
42	0x3ea9463b	0.33061394
43	0x3daa7576	0.08323185
44	0xbd6dac93	-0.058025908
45	0xbcc44fcb	-0.02396383
46	0x3e8c088f	0.2735028
47	0x3e9c71a7	0.3055546
48	0x3e486444	0.19569498
49	0x3e83da89	0.25752667
50	0x3e3a7366	0.18208084
51	0x3e98855c	0.29789245
52	0x3eee6a3f	0.46565434
53	0x3e5abc85	0.21360977
54	0x3e07f283	0.13276105
55	0x3df68014	0.12036148
56	0x3dd15cb7	0.10222762
57	0x3e2b55da	0.16731969
58	0x3ebb9d3e	0.36643404
59	0x3eb8efb9	0.36120394
60	0x3e6650ec	0.22491807
61	0x3e62d06c	0.22149819
62	0x3e93760f	0.2880101
63	0x3e6a45ba	0.22878161
64	0x3e4d17f3	0.20028667
65	0x3e42b605	0.19014747
66	0x3e558cd5	0.20854504
67	0x3e0534a1	0.13008358
68	0x3df54197	0.11975401
69	0x3dfb5093	0.12271228
70	0x3e891488	0.26773477
71	0x3e2b71d2	0.16742638
72	0x3e6bff70	0.2304666
73	0x3e07e4b0	0.13270831
74	0x3e644c7a	0.22294798
75	0x3e8d2ad6	0.27571744
76	0x3e6c9b5f	0.23106144
77	0x3e257471	0.161577
78	0x3e2fc944	0.1716662
79	0x3e48bc6f	0.19603132
80	0x3e62e359	0.22157039
81	0x3e9534c6	0.29141825
82	0x3e4e5ab2	0.20151785
83	0x3e932f36	0.28746957
84	0x3e86d015	0.2633063
85	0x3e4f017d	0.20215411
86	0x3e649e92	0.22326115
87	0x3e90058f	0.2812924
88	0x3e8c0711	0.2734914
89	0x3e028cc0	0.12749004
90	0x3e0deeea	0.1386067
91	0x3e1357f8	0.14389026
92	0x3e0c7a6f	0.1371858
93	0x3dd52319	0.10407085
94	0x3e1dc03d	0.15405364
95	0x3e3378e6	0.17526588
96	0x3e20929b	0.15680926
97	0x3e25f9f8	0.16208637
98	0x3e524a7d	0.20536228
99	0x3e5e05b7	0.21681868
100	0x3e4cfa8c	0.20017451
101	0x3e10c5b2	0.14137915
102	0x3e374f8d	0.1790144
103	0x3e37f870	0.17965865
104	0x3e8403df	0.25784203
105	0x3e8e31f7	0.27772495
106	0x3e130b61	0.1435981
107	0x3df0388a	0.11729534
108	0x3e0659da	0.13120213
109	0x3d719585	0.058980484
110	0x3dce76ee	0.10081278
111	0x3d04dd00	0.032437325
112	0xbbc136be	-0.0058964184
113	0x3d2a4d2c	0.041577503
114	0x3dc685be	0.09693478
115	0x3dc4f33d	0.096167065
116	0xbd86eb1f	-0.065878145
117	0xbcdc130e	-0.026864555
118	0xbd541a81	-0.05178309
119	0x3d8f1ecd	0.06988297
120	0x3d8d69c4	0.06904939
121	0xbbce7127	-0.00630011
122	0xbcc185bf	-0.023623345
123	0x3cd18144	0.025574334
124	0xbd5841e8	-0.052797228
125	0xbde1dba9	-0.11028225
126	0xbdb0e0ec	-0.086366504
127	0xbd34c720	-0.044135213
128	0xbe274d2c	-0.16338032
129	0xbe3a6c88	-0.18205464
130	0xbda705b5	-0.081553854
131	0xbd99423f	-0.074833386
132	0xbd83505e	-0.06411813
133	0xbdc41bf4	-0.09575644
134	0xbe197547	-0.14986144
135	0xbdc227da	-0.09480257
136	0xbd9f902c	-0.077911705
137	0xbdd48110	-0.10376179
138	0xbde4ee20	-0.11178231
139	0xbdd6a442	-0.104805484
140	0xbdcd73d1	-0.10031856
141	0xbdf85179	-0.12124915
142	0xbde420d4	-0.11139074
143	0xbe00dc9c	-0.12584156
144	0xbe03a9e2	-0.12857774
145	0xbe1aa66e	-0.1510255
146	0xbe449e20	-0.19200945
147	0xbe513954	-0.20432025
148	0xbe7b8fcc	-0.24566573
149	0xbe7f9e9d	-0.2496285
150	0xbe2ccb8f	-0.16874526
151	0xbe25c776	-0.1618937
152	0xbe444bf0	-0.19169593
153	0xbe258fdf	-0.16168164
154	0xbe32e785	-0.1747113
155	0xbe885f43	-0.2663518
156	0xbe948a09	-0.29011562
157	0xbe76b238	-0.24091423
158	0xbe3555b2	-0.17708471
159	0xbe78bdbf	-0.24291132
160	0xbe88c9a4	-0.2671634
161	0xbe83ed8b	-0.25767168
162	0xbe559ef6	-0.2086142
163	0xbe6c57cf	-0.23080371
164	0xbe490636	-0.19631276
165	0xbe572637	-0.21010672
166	0xbe929e08	-0.28636193
167	0xbe5536f7	-0.20821749
168	0xbe79c88b	-0.24392907
169	0xbe7efc5b	-0.24900953
170	0xbe134c30	-0.14384532
171	0xbe4b0e23	-0.19829611
172	0xbdc01389	-0.09378726
173	0xbe4e7c75	-0.20164664
174	0xbe4c969e	-0.19979331
175	0xbe754db2	-0.2395542
176	0xbe66662f	-0.22499917
177	0xbe8b6bc5	-0.2723066
178	0xbea8076d	-0.32818165
179	0xbe8e4db4	-0.27793658
180	0xbe89f67c	-0.26945865
181	0xbe94bb8a	-0.2904933
182	0xbe9925fe	-0.29911798
183	0xbea5b1ed	-0.3236231
184	0xbeb0b176	-0.34510392
185	0xbe9f2635	-0.31083837
186	0xbe9925eb	-0.29911742
187	0xbea1a793	-0.3157316
188	0xbe893ae9	-0.26802757
189	0xbe9c6206	-0.30543536
190	0xbe827ff1	-0.25488237
191	0xbe87f7db	-0.26556286
192	0xbe8d1bf2	-0.27560383
193	0xbe82ea4b	-0.25569376
194	0xbe9521bc	-0.291273
195	0xbe90aded	-0.28257695
196	0xbe481dc6	-0.19542608
197	0xbe703518	-0.23457754
198	0xbe3f3faa	-0.1867663
199	0xbe46151d	-0.19343992
200	0xbe54cf51	-0.2078221
201	0xbe8e44ba	-0.2778681
202	0xbe889505	-0.26676193
203	0xbe2db6ed	-0.16964312
204	0xbe458e84	-0.19292647
205	0xbe65e838	-0.22451866
206	0xbe4f41a7	-0.20239888
207	0xbe4da5c7	-0.2008277
208	0xbe3f89e0	-0.18704939
209	0xbe2cc592	-0.16872242
210	0xbdfd52ee	-0.12369333
211	0xbe1410bc	-0.14459509
212	0xbe4b4a02	-0.1985245
213	0xbe414d82	-0.18877223
214	0xbe3a7236	-0.1820763
215	0xbe51cf09	-0.20489134
216	0xbe596d90	-0.21233201
217	0xbe082251	-0.1329434
218	0xbe498dab	-0.19682948
219	0xbe8755ae	-0.26432556
220	0xbe5e621b	-0.21717112
221	0xbe88df80	-0.26733017
222	0xbe963d74	-0.2934376
223	0xbea35fdf	-0.3190908
224	0xbe8f334c	-0.27968824
225	0xbe4ac023	-0.19799857
226	0xbe4cfb8d	-0.20017834
227	0xbe82606c	-0.2546419
228	0xbe90926d	-0.28236714
229	0xbe4a5903	-0.19760518
230	0xbe657743	-0.22408776
231	0xbe504dbd	-0.20342155
232	0xbe0f9a76	-0.14023766
233	0xbe69ca8d	-0.22831173
234	0xbe5ffa27	-0.2187277
235	0xbe79b684	-0.2438603
236	0xbe8077bd	-0.25091353
237	0xbe959021	-0.29211524
238	0xbe87f922	-0.2655726
239	0xbe8a87d8	-0.27056766
240	0xbe1dd5e3	-0.15413623
241	0xbe9902e0	-0.29885006
242	0xbe85495a	-0.26032525
243	0xbeb3ce01	-0.35118106
244	0xbe70b2fe	-0.2350578
245	0xbe6cfa7d	-0.23142429
246	0xbeb5969f	-0.35466477
247	0xbea7734e	-0.32705158
248	0xbe7d21d8	-0.24719942
249	0xbe646a3a	-0.22306147
250	0xbe8ffe6a	-0.2812379
251	0xbeef004f	-0.46679923
252	0xbe9704c5	-0.29495826
253	0xbeaf03ce	-0.3418259
254	0xbead43ef	-0.33840892
255	0xbe96a817	-0.29425117

functional_3/lstm_4/lstm_cell_4/3188 f4 [512]
0	0x3ef86725	0.48516193
1	0xbcbb134c	-0.02283635
2	0x3dbaa8d2	0.09114231
3	0xbf804544	-1.0021138
4	0x3d3d94fa	0.046284653
5	0xbf004386	-0.5010303
6	0x3e74be61	0.23900749
7	0x3dcc9e5b	0.099911414
8	0x3c4a1f15	0.012336512
9	0xbe1e9be1	-0.1548915
10	0xbf5592cd	-0.83427125
11	0x3d6ba1a6	0.057527207
12	0x3ecc0867	0.3985016
13	0x3bdb6b9a	0.0066961767
14	0x3eb10f97	0.34582207
15	0xbf71700e	-0.94311607
16	0xbf5672b3	-0.8376877
17	0x3ddc052f	0.10743176
18	0x3d0cf2d1	0.034411255
19	0xbeeda3c1	-0.46413997
20	0xbe8978d9	-0.26850012
21	0xbcece0d8	-0.028915808
22	0x3ecb33eb	0.39688048
23	0xbea8998b	-0.32929644
24	0xbeab0a8b	-0.3340648
25	0xbdbf241f	-0.093330614
26	0x3e648769	0.2231728
27	0x3ea24eaf	0.31700656
28	0x3d2a358d	0.041554976
29	0x3eb5d7ff	0.35516354
30	0xbf5efe3a	-0.8710667
31	0xbf0ede6b	-0.5580813
32	0xbf2d08f6	-0.675918
33	0xbf70f601	-0.9412537
34	0x3e3e8230	0.1860435
35	0xbf121031	-0.57055956
36	0xbf61b5e2	-0.88168156
37	0xbe9ae4ac	-0.30252588
38	0x3df62447	0.12018638
39	0xbe534c58	-0.20634592
40	0xbd120c71	-0.035656396
41	0x3e3fcbfe	0.1873016
42	0xbd6ecb24	-0.0582992
43	0x3f346278	0.7046275
44	0xbea6c124	-0.3256923
45	0x3be1938e	0.006884045
46	0x3cb1202e	0.02162179
47	0x3e9478c6	0.28998393
48	0x3e52fdbd	0.20604606
49	0xbfba2b84	-1.454453
50	0x3db0d7e2	0.086349264
51	0xbe89b523	-0.2689601
52	0xbe489284	-0.19587141
53	0xbe6aff89	-0.22949041
54	0xbd90367e	-0.070416436
55	0xbd41cfd4	-0.04731734
56	0x3e44e59b	0.19228213
57	0x3e53bbbb	0.20677082
58	0xbe291630	-0.1651237
59	0xbe5db55d	-0.21651216
60	0x3ed7c10a	0.42139465
61	0xbf0453b5	-0.51690227
62	0x3f32a736	0.69786394
63	0xbe611f35	-0.21984561
64	0xbe8b0aa7	-0.27156565
65	0xbeb299b7	-0.348829
66	0x3d8a2ff4	0.067474276
67	0xbe91b7a0	-0.28460407
68	0x3d5bba45	0.053644437
69	0xbe67e4a7	-0.22645818
70	0xbf7f5c0b	-0.9974982
71	0x3f0daada	0.55338824
72	0xbf5b0f9d	-0.855707
73	0x3f45ee92	0.77317154
74	0xbf27b0b2	-0.6550399
75	0xbd11bc95	-0.035580236
76	0xbf811624	-1.0084882
77	0x3ed2439c	0.41067207
78	0x3dbba99b	0.09163209
79	0x3f7d4d02	0.9894563
80	0xbd90bb82	-0.07067014
81	0xbe3b5d39	-0.1829728
82	0xbf00b199	-0.5027099
83	0xbe1ef31a	-0.15522423
84	0x3d083135	0.033250052
85	0xbdd1a972	-0.10237397
86	0x3e0b1557	0.13582359
87	0xbf0e8303	-0.5566866
88	0xbe345bc4	-0.17613131
89	0x3eca2d92	0.39487892
90	0x3ea6662f	0.32499835
91	0xbea05717	-0.31316444
92	0xbde514ee	-0.11185633
93	0xbf4a8579	-0.79109913
94	0xbe63b1be	-0.22235772
95	0x3d41f518	0.04735288
96	0x3e3caa03	0.1842423
97	0xbdff8255	-0.12476031
98	0xbe236a0a	-0.1595842
99	0xbe026902	-0.1273537
100	0x3e479335	0.19489749
101	0x3f107e33	0.56442565
102	0xbec2da4d	-0.38057175
103	0x3dcc91ad	0.09988723
104	0xbe4e91b0	-0.20172763
105	0x3e7012a2	0.23444608
106	0x3e7744ac	0.2414729
107	0xbf361872	-0.7113105
108	0x3d674c50	0.05646926
109	0x3d98cdf2	0.07461156
110	0x3efff741	0.49993327
111	0xbec9d8e3	-0.39423284
112	0xbe29eff0	-0.16595435
113	0xbf23ad7e	-0.63936603
114	0x3e49af09	0.19695677
115	0x3e006684	0.12539107
116	0xbeae661a	-0.34062272
117	0x3e937c85	0.28805938
118	0x3de8bc07	0.11363988
119	0x3f37cd00	0.7179718
120	0x3df87fec	0.12133774
121	0xbe1ed24a	-0.15509906
122	0x3e96b883	0.29437646
123	0x3d14b0ed	0.036301542
124	0x3ee9661e	0.45585722
125	0x3eb03fbc	0.34423625
126	0x3e247bb1	0.1606281
127	0xbf14ee8e	-0.58176506
128	0x3fab52a2	1.3384593
129	0x3f82e4d8	1.0226088
130	0x3f65f0c6	0.89820516
131	0x3fab9197	1.3403805
132	0x3f96ff54	1.179667
133	0x3f7d7f55	0.9902242
134	0x3f8cd5f0	1.1002789
135	0x3f938469	1.1524783
136	0x3f5c7119	0.86110073
137	0x3f7693fe	0.9631957
138	0x3fbf2df8	1.4935904
139	0x3f81fd3d	1.0155407
140	0x3f56b627	0.8387169
141	0x3f94e2a0	1.163166
142	0x3f83cb3a	1.0296395
143	0x3fc9bb8e	1.5760362
144	0x3f8e103c	1.1098704
145	0x3f6fdcda	0.9369637
146	0x3f8593a1	1.0435678
147	0x3f83e450	1.030405
148	0x3f6e1550	0.9300127
149	0x3f8bde12	1.0927145
150	0x3f9a73a7	1.2066544
151	0x3f4404c5	0.7656978
152	0x3f643ee1	0.89158446
153	0x3f6644bc	0.8994863
154	0x3f88f27d	1.0699002
155	0x3f8f5a0d	1.1199356
156	0x3f7ae63f	0.9800758
157	0x3f828dd5	1.0199534
158	0x3f52a61a	0.822847
159	0x3f739823	0.9515402
160	0x3f99040e	1.1954362
161	0x3faf56bb	1.3698343
162	0x3f71819f	0.9433841
163	0x3fb28143	1.3945698
164	0x3fc30cee	1.5238321
165	0x3f1592d3	0.5842716
166	0x3f8486fa	1.0353692
167	0x3f8aa7de	1.0832479
168	0x3f387dea	0.7206713
169	0x3f415c91	0.7553187
170	0x3f8c276c	1.0949531
171	0x3f833b4d	1.0252472
172	0x3f821273	1.016188
173	0x3f9ab904	1.2087712
174	0x3fb46474	1.4093156
175	0x3f8734dd	1.0563008
176	0x3f8e885c	1.1135364
177	0x3faf8020	1.3710976
178	0x3f8e0751	1.1095983
179	0x3f10d7d4	0.5657933
180	0x3f7b98bb	0.98279923
181	0x3f5d0c4d	0.86346895
182	0x3f89527a	1.0728295
183	0x3f5653d7	0.8372168
184	0x3f346f0a	0.7048193
185	0x3f66caee	0.90153396
186	0x3f8975d2	1.0739081
187	0x3f4c85b4	0.79891515
188	0x3fa9c453	1.3263038
189	0x3f7c74d2	0.98615754
190	0x3f837cf4	1.0272508
191	0x3f84100c	1.0317397
192	0x3f8ee863	1.1164669
193	0x3faa8b9b	1.3323854
194	0x3f8d15bf	1.1022261
195	0x3f91f1d6	1.1401927
196	0x3f74c279	0.9560924
197	0x3f83ad64	1.028729
198	0x3fca769a	1.5817444
199	0x3f9bf9b9	1.2185584
200	0x3f9b8d13	1.2152427
201	0x3f9102e5	1.1329008
202	0x3f4097e6	0.7523178
203	0x3f8ec3b6	1.1153476
204	0x3fd5351f	1.6656836
205	0x3f8647d4	1.049067
206	0x3f6a33e1	0.9148541
207	0x3f934b88	1.1507425
208	0x3f549e11	0.8305369
209	0x3f769dd0	0.9633455
210	0x3fa75dec	1.3075538
211	0x3f55a2fd	0.83451825
212	0x3f4a69b0	0.79067516
213	0x3f6bf825	0.92175514
214	0x3f99a36a	1.2002995
215	0x3f991e1d	1.1962315
216	0x3f4141ea	0.754912
217	0x3f8bcc5f	1.0921744
218	0x3f8f9062	1.1215937
219	0x3f3b8d84	0.7326281
220	0x3f62680b	0.88440007
221	0x3fc21fd8	1.5165968
222	0x3f837a9f	1.0271796
223	0x3fa75b0f	1.3074664
224	0x3f8e9f76	1.1142414
225	0x3f46e99c	0.7770021
226	0x3f831310	1.0240192
227	0x3f56a61b	0.83847207
228	0x3f8c0c08	1.0941172
229	0x3f8f213a	1.1182015
230	0x3f60b44f	0.8777513
231	0x3f8c14b0	1.0943813
232	0x3f7a3d44	0.97749734
233	0x3f84fcff	1.0389708
234	0x3f83ae9f	1.0287665
235	0x3f99ff55	1.2031046
236	0x3f829bad	1.0203758
237	0x3f86eb12	1.0540488
238	0x3f8be13e	1.0928113
239	0x3f82f002	1.0229495
240	0x3f7d8012	0.99023545
241	0x3f97fe11	1.187441
242	0x3f60721d	0.87674123
243	0x3f643a79	0.8915172
244	0x3f5b4364	0.85649705
245	0x3f7dd76e	0.99156845
246	0x3fb7bf07	1.4355172
247	0x3f92c869	1.146741
248	0x3f876544	1.0577779
249	0x3f836d5c	1.0267749
250	0x3f728f31	0.9474974
251	0x3f8f4a0d	1.1194474
252	0x3f8c6068	1.0966921
253	0x3f7e1840	0.9925575
254	0x3fa287be	1.2697675
255	0x3f8922ca	1.0713742

functional_3/lstm_5/lstm_cell_5/BiasAdd/ReadVariableOp/resource f4 [512]
0	0xbeb85a8d	-0.36006585
1	0xbd2c4bc6	-0.04206445
2	0x3d1f79fb	0.03893469
3	0xbe6e7e1a	-0.23290291
4	0xbe8e2e6f	-0.277698
5	0xbf36c7ea	-0.71398795
6	0x3e716242	0.23572639
7	0xbf0d568f	-0.552102
8	0xbe59503e	-0.21222016
9	0xbe6125a7	-0.2198702
10	0x3d7962d4	0.060885265
11	0xbe2fde7d	-0.17174716
12	0xbf00e892	-0.50354874
13	0xbea5fdd2	-0.32420212
14	0xbeeb9631	-0.46013024
15	0xbef52e67	-0.47886965
16	0xbede944e	-0.43472522
17	0xbe927255	-0.28602853
18	0xbf554542	-0.83308804
19	0xbea8671c	-0.32891166
20	0xbf385161	-0.71999174
21	0xbf5ebd06	-0.87007177
22	0xbf606514	-0.8765423
23	0x3eb61333	0.35561523
24	0xbed79027	-0.42102167
25	0xbe9ef261	-0.31044295
26	0xbf2489ca	-0.6427275
27	0xbea7e189	-0.32789257
28	0xbd71c2c6	-0.05902364
29	0xbe953cd0	-0.2914796
30	0xbf1ed500	-0.6204376
31	0xbe2741c4	-0.16333681
32	0x3dded728	0.108808815
33	0xbedebf71	-0.43505433
34	0xbe5e131b	-0.21686976
35	0xbee989b7	-0.4561288
36	0xbf35f948	-0.710835
37	0xbe8b00aa	-0.27148944
38	0xbef29b84	-0.47384274
39	0xbe9439f9	-0.2895048
40	0xbed458b1	-0.41473916
41	0xbe78fa82	-0.24314311
42	0xbf873792	-1.0563834
43	0xbef63f6d	-0.48095265
44	0xbe60f96e	-0.2197015
45	0xbeecef54	-0.46276343
46	0xbf3fb630	-0.7488737
47	0xbd4ae036	-0.04953023
48	0xbea58bae	-0.3233313
49	0xbe4e9bdb	-0.20176642
50	0xbf52a130	-0.822772
51	0xbf5e741e	-0.8689593
52	0xbc04ac72	-0.008097755
53	0xbe861028	-0.261842
54	0xbe642d70	-0.22282958
55	0x3e210419	0.1572422
56	0xbefa692c	-0.48908365
57	0xbed750ce	-0.42053837
58	0x3e817a92	0.25288826
59	0xbe82d9cd	-0.25556794
60	0xbee3770a	-0.44426757
61	0xbf853f9c	-1.0410037
62	0xbf2df383	-0.67949694
63	0xbe8f7902	-0.2802201
64	0x3e530fd3	0.20611505
65	0xbf3a227f	-0.72708887
66	0xbe4043dd	-0.18775888
67	0xbea917ef	-0.33026072
68	0xbd9e4563	-0.07728078
69	0xbf1ebe47	-0.6200909
70	0xbf45fece	-0.77341926
71	0xbe67fd27	-0.22655164
72	0xbeeb8586	-0.46000308
73	0xbe400455	-0.18751653
74	0xbd8d4461	-0.06897808
75	0xbe9915a4	-0.29899323
76	0xbe7a4842	-0.24441627
77	0xbf394f6b	-0.7238681
78	0xbe788c16	-0.24272189
79	0xbea5e374	-0.32400095
80	0xbf10a039	-0.5649448
81	0xbefe2eea	-0.49645168
82	0xbedb20bd	-0.42798415
83	0xbf4abe8d	-0.7919701
84	0x3d62cbfa	0.05537031
85	0xbdc76bc8	-0.097373545
86	0xbeb08134	-0.34473574
87	0x3e40ddbb	0.18834583
88	0xbed762bc	-0.42067516
89	0xbf68e1f8	-0.909698
90	0xbf5dd992	-0.8666011
91	0xbf43a68d	-0.7642601
92	0xbeedc9e0	-0.4644308
93	0xbe8e3da0	-0.2778139
94	0xbe07fe85	-0.13280685
95	0xbea19be7	-0.31564257
96	0xbf45d50d	-0.77278215
97	0xbe84c8a6	-0.25934333
98	0xbf0d15de	-0.5511149
99	0xbe40adfc	-0.1881637
100	0x3dce0811	0.10060132
101	0xbd9107ca	-0.07081564
102	0xbf0764cd	-0.52888185
103	0xbf22911b	-0.63502663
104	0xbf3f4fd6	-0.74731195
105	0xbea8f704	-0.33000958
106	0xbe003246	-0.12519178
107	0xbf2e7c83	-0.6815874
108	0xbed22220	-0.4104166
109	0xbe0a5fd2	-0.13513115
110	0x3dc1d430	0.094643
111	0xbf31236f	-0.6919469
112	0x3d79892b	0.06092183
113	0xbe7ad380	-0.24494743
114	0xbf4565cc	-0.77108455
115	0xbede38f1	-0.43402818
116	0xbef2e274	-0.47438395
117	0xbf0bcca4	-0.5460913
118	0xbe93be6f	-0.28856227
119	0xbf0280eb	-0.50977963
120	0xbe56eb30	-0.20988154
121	0xbe993e4c	-0.2993034
122	0xbee0b5bd	-0.43888655
123	0x3f242edb	0.64133996
124	0x3da4c326	0.08045034
125	0xbeb22d1c	-0.3480004
126	0xbf02bbb8	-0.51067686
127	0xbddcc767	-0.107802205
128	0x3e8d3268	0.2757752
129	0x3f87797c	1.0583949
130	0x3f70eea2	0.94114125
131	0x3f93be2e	1.1542413
132	0x3f2bcd48	0.6711011
133	0x3f19e745	0.60118514
134	0x3f8acef1	1.0844404
135	0x3fa427d2	1.2824652
136	0x3f18e935	0.59730846
137	0x3f531f76	0.8246988
138	0x3f55735d	0.83379155
139	0x3f8fd5d5	1.1237131
140	0x3f22b210	0.6355295
141	0x3f14ca98	0.58121634
142	0x3fa6ccc1	1.3031236
143	0x3f91645a	1.135875
144	0x3fa0e155	1.2568766
145	0x3f9aadbc	1.208427
146	0x3fa82e9d	1.3139225
147	0x3f0e3395	0.5554746
148	0x3f937d11	1.1522542
149	0x3e0ca180	0.13733482
150	0x3e944d6d	0.2896532
151	0x3faeb90b	1.3650221
152	0x3f89b618	1.0758696
153	0x3f6cc65a	0.9249016
154	0x3fa994bc	1.3248515
155	0x3f09b651	0.5379382
156	0x3f42d5d0	0.761075
157	0x3f98e23a	1.1944039
158	0x3f484068	0.78223276
159	0x3f970fbb	1.1801676
160	0x3f882183	1.0635227
161	0x3ec92d4f	0.3929238
162	0x3f8d19d3	1.1023506
163	0x3fa09d76	1.2548053
164	0x3e35a3ca	0.17738262
165	0x3f50fbc6	0.81634176
166	0x3f510ce8	0.8166032
167	0x3f36cb67	0.7140412
168	0x3facb289	1.3491985
169	0x3f42219e	0.75832546
170	0x3e715f95	0.23571618
171	0x3ec44105	0.38330856
172	0x3f99e696	1.2023494
173	0x3f49280c	0.7857673
174	0x3fab657f	1.3390349
175	0x3f1067d8	0.56408453
176	0x3f662dad	0.89913446
177	0x3f2be1ad	0.6714123
178	0x3fb6aef7	1.4272145
179	0x3fbe0aea	1.4847081
180	0x3f5a015e	0.85158336
181	0x3f982d25	1.1888777
182	0x3f72cecf	0.94846815
183	0x3fb0ba8f	1.3806933
184	0x3fa135eb	1.259458
185	0x3fa39c29	1.2782031
186	0x3f982d01	1.1888734
187	0x3f7f27b2	0.99669945
188	0x3f8cf9dd	1.1013752
189	0x3fadd2e0	1.3579979
190	0x3f9fb79a	1.2477906
191	0x3f83c0dd	1.0293232
192	0x3f138f28	0.57640314
193	0x3eae690e	0.34064525
194	0x3f4b4df4	0.7941582
195	0x3e14ac62	0.14518884
196	0x3f84ddb4	1.0380158
197	0x3f7372ca	0.9509703
198	0x3faff010	1.3745136
199	0x3f2a5242	0.66531765
200	0x3fa4b5a5	1.2867934
201	0x3f80e9c4	1.007134
202	0x3f5649f5	0.837066
203	0x3ed9fa61	0.42573836
204	0x3fb0b2f9	1.3804618
205	0x3fa66c55	1.300181
206	0x3f6f9ecb	0.93601674
207	0x3fa3110c	1.2739577
208	0x3fa396ad	1.2780358
209	0x3f574f03	0.8410494
210	0x3f95cb09	1.1702586
211	0x3fafb6dc	1.3727679
212	0x3ec309d8	0.38093448
213	0x3f46dc02	0.77679455
214	0x3f993d2a	1.1971791
215	0x3f9837c5	1.189202
216	0x3f350b5e	0.7072047
217	0x3f11b933	0.56923217
218	0x3fb9e157	1.4521893
219	0x3fb32144	1.3994527
220	0x3f9c88c6	1.222924
221	0x3ef19c1e	0.4718942
222	0x3f55e388	0.8355031
223	0x3f43bd08	0.76460314
224	0x3fb52cd0	1.4154301
225	0x3f85b2b3	1.044516
226	0x3fa913aa	1.3209126
227	0x3f987017	1.1909207
228	0x3f521d0a	0.8207556
229	0x3f8d6683	1.1046909
230	0x3ef50855	0.4785792
231	0x3fa4d7fd	1.2878414
232	0x3fa91c7c	1.3211818
233	0x3f53b49c	0.82697463
234	0x3fb448a6	1.408467
235	0x3fada234	1.3565125
236	0x3f92381e	1.1423376
237	0x3f5bd407	0.85870403
238	0x3f8fb7eb	1.1228002
239	0x3fa171eb	1.261289
240	0x3f3c14f6	0.73469484
241	0x3f096481	0.5366898
242	0x3ec8cda1	0.39219382
243	0x3f51aea9	0.81907135
244	0x3fa2b799	1.271228
245	0x3fb27ce2	1.3944361
246	0x3f5a2b56	0.85222375
247	0x3f76cd90	0.96407413
248	0x3f77648f	0.96637815
249	0x3f064df0	0.52462673
250	0x3f538bc0	0.82635117
251	0x3f9e0d1b	1.234775
252	0x3f091904	0.53553796
253	0x3f1a30ef	0.60230917
254	0x3f90bd8d	1.1307846
255	0x3f402a43	0.75064486

functional_3/dense_2/Tensordot/MatMul i1 [257, 128] scale=0.043263227 zero_point=0
0	0x04	0.1730529
1	0x14	0.86526453
2	0x07	0.3028426
3	0x04	0.1730529
4	0x02	0.08652645
5	0x00	0.0
6	0x09	0.38936904
7	0xca	-2.3362143
8	0xfe	-0.08652645
9	0xfc	-0.1730529
10	0x01	0.043263227
11	0x01	0.043263227
12	0xfe	-0.08652645
13	0x03	0.12978968
14	0x08	0.3461058
15	0xfc	-0.1730529
16	0xff	-0.043263227
17	0x03	0.12978968
18	0x01	0.043263227
19	0xfe	-0.08652645
20	0x12	0.7787381
21	0x00	0.0
22	0x01	0.043263227
23	0x0c	0.5191587
24	0x06	0.25957936
25	0x03	0.12978968
26	0xff	-0.043263227
27	0x01	0.043263227
28	0x04	0.1730529
29	0xfd	-0.12978968
30	0x01	0.043263227
31	0x05	0.21631613
32	0xf8	-0.3461058
33	0x02	0.08652645
34	0xff	-0.043263227
35	0x0d	0.5624219
36	0xfd	-0.12978968
37	0xfb	-0.21631613
38	0xfe	-0.08652645
39	0x04	0.1730529
40	0xfe	-0.08652645
41	0x0c	0.5191587
42	0xfc	-0.1730529
43	0xfc	-0.1730529
44	0x0e	0.6056852
45	0xf8	-0.3461058
46	0xe8	-1.0383174
47	0x0a	0.43263227
48	0x09	0.38936904
49	0x00	0.0
50	0x12	0.7787381
51	0xf6	-0.43263227
52	0x06	0.25957936
53	0xee	-0.7787381
54	0xff	-0.043263227
55	0xf8	-0.3461058
56	0xe7	-1.0815806
57	0xfe	-0.08652645
58	0xfc	-0.1730529
59	0x1a	1.1248438
60	0xfb	-0.21631613
61	0xc6	-2.509267
62	0xf9	-0.3028426
63	0xee	-0.7787381
64	0x08	0.3461058
65	0xfc	-0.1730529
66	0x00	0.0
67	0xfd	-0.12978968
68	0x01	0.043263227
69	0x04	0.1730529
70	0xe7	-1.0815806
71	0x01	0.043263227
72	0xf8	-0.3461058
73	0x07	0.3028426
74	0xf9	-0.3028426
75	0x01	0.043263227
76	0xf6	-0.43263227
77	0xfe	-0.08652645
78	0x00	0.0
79	0xea	-0.951791
80	0xf0	-0.6922116
81	0xf9	-0.3028426
82	0xfb	-0.21631613
83	0x0c	0.5191587
84	0x05	0.21631613
85	0x0a	0.43263227
86	0x00	0.0
87	0xfa	-0.25957936
88	0xfe	-0.08652645
89	0xf8	-0.3461058
90	0x09	0.38936904
91	0xf6	-0.43263227
92	0x08	0.3461058
93	0x06	0.25957936
94	0x00	0.0
95	0x01	0.043263227
96	0xf6	-0.43263227
97	0x00	0.0
98	0x04	0.1730529
99	0x00	0.0
100	0x05	0.21631613
101	0xfa	-0.25957936
102	0xfe	-0.08652645
103	0x06	0.25957936
104	0x02	0.08652645
105	0xfd	-0.12978968
106	0x03	0.12978968
107	0xf9	-0.3028426
108	0x0d	0.5624219
109	0x01	0.043263227
110	0x00	0.0
111	0xd7	-1.7737923
112	0x0d	0.5624219
113	0x01	0.043263227
114	0xfb	-0.21631613
115	0xff	-0.043263227
116	0x09	0.38936904
117	0x06	0.25957936
118	0x00	0.0
119	0x03	0.12978968
120	0x0a	0.43263227
121	0x00	0.0
122	0x04	0.1730529
123	0xfe	-0.08652645
124	0xff	-0.043263227
125	0x09	0.38936904
126	0xf1	-0.64894843
127	0x05	0.21631613
128	0xf9	-0.3028426
129	0x1b	1.1681072
130	0x03	0.12978968
131	0x07	0.3028426
132	0x02	0.08652645
133	0x04	0.1730529
134	0x03	0.12978968
135	0xc4	-2.5957937
136	0x02	0.08652645
137	0x00	0.0
138	0xff	-0.043263227
139	0xfb	-0.21631613
140	0xfc	-0.1730529
141	0x00	0.0
142	0x06	0.25957936
143	0xfe	-0.08652645
144	0x01	0.043263227
145	0x06	0.25957936
146	0x0e	0.6056852
147	0x02	0.08652645
148	0x11	0.7354748
149	0xfd	-0.12978968
150	0x01	0.043263227
151	0x0a	0.43263227
152	0x05	0.21631613
153	0x05	0.21631613
154	0x01	0.043263227
155	0x02	0.08652645
156	0x0b	0.4758955
157	0xfc	-0.1730529
158	0xfd	-0.12978968
159	0x07	0.3028426
160	0xf9	-0.3028426
161	0x01	0.043263227
162	0xfe	-0.08652645
163	0x0a	0.43263227
164	0xfc	-0.1730529
165	0x00	0.0
166	0x03	0.12978968
167	0x08	0.3461058
168	0x04	0.1730529
169	0x0d	0.5624219
170	0xf6	-0.43263227
171	0xfe	-0.08652645
172	0x12	0.7787381
173	0xfc	-0.1730529
174	0xf5	-0.4758955
175	0x06	0.25957936
176	0x03	0.12978968
177	0x03	0.12978968
178	0x00	0.0
179	0x09	0.38936904
180	0x04	0.1730529
181	0xf7	-0.38936904
182	0xfe	-0.08652645
183	0xfa	-0.25957936
184	0xdb	-1.6007394
185	0xff	-0.043263227
186	0x04	0.1730529
187	0x26	1.6440027
188	0xff	-0.043263227
189	0xde	-1.4709496
190	0x0a	0.43263227
191	0xf0	-0.6922116
192	0x07	0.3028426
193	0x02	0.08652645
194	0xfe	-0.08652645
195	0xfe	-0.08652645
196	0x02	0.08652645
197	0x11	0.7354748
198	0x16	0.951791
199	0x04	0.1730529
200	0xfd	-0.12978968
201	0x05	0.21631613
202	0xff	-0.043263227
203	0xfc	-0.1730529
204	0xf4	-0.5191587
205	0x01	0.043263227
206	0xfd	-0.12978968
207	0xe9	-0.99505424
208	0xf9	-0.3028426
209	0xfd	-0.12978968
210	0x00	0.0
211	0x05	0.21631613
212	0x00	0.0
213	0x09	0.38936904
214	0xfe	-0.08652645
215	0xfb	-0.21631613
216	0xfd	-0.12978968
217	0xfd	-0.12978968
218	0x01	0.043263227
219	0xfe	-0.08652645
220	0x04	0.1730529
221	0x0d	0.5624219
222	0xfe	-0.08652645
223	0xf8	-0.3461058
224	0xfa	-0.25957936
225	0xfe	-0.08652645
226	0x04	0.1730529
227	0xf1	-0.64894843
228	0xff	-0.043263227
229	0x00	0.0
230	0xfe	-0.08652645
231	0x06	0.25957936
232	0xfe	-0.08652645
233	0xfc	-0.1730529
234	0xfc	-0.1730529
235	0xf5	-0.4758955
236	0xf6	-0.43263227
237	0x03	0.12978968
238	0xf5	-0.4758955
239	0xf6	-0.43263227
240	0x06	0.25957936
241	0x02	0.08652645
242	0xff	-0.043263227
243	0xfc	-0.1730529
244	0x08	0.3461058
245	0x06	0.25957936
246	0xfc	-0.1730529
247	0x05	0.21631613
248	0x0a	0.43263227
249	0x07	0.3028426
250	0x03	0.12978968
251	0xfc	-0.1730529
252	0xfd	-0.12978968
253	0x02	0.08652645
254	0xf3	-0.5624219
255	0xff	-0.043263227

functional_3/lstm_5/lstm_cell_5/MatMul i1 [512, 128] scale=0.029862713 zero_point=0
0	0xfc	-0.11945085
1	0xff	-0.029862713
2	0x02	0.059725426
3	0xf9	-0.20903899
4	0x08	0.2389017
5	0xfc	-0.11945085
6	0xfe	-0.059725426
7	0x01	0.029862713
8	0xf7	-0.2687644
9	0xfc	-0.11945085
10	0xfe	-0.059725426
11	0x04	0.11945085
12	0x08	0.2389017
13	0xfc	-0.11945085
14	0xfd	-0.089588135
15	0xfd	-0.089588135
16	0x04	0.11945085
17	0x02	0.059725426
18	0x0c	0.35835254
19	0x15	0.627117
20	0x01	0.029862713
21	0xfa	-0.17917627
22	0x15	0.627117
23	0xf9	-0.20903899
24	0xf2	-0.41807798
25	0x01	0.029862713
26	0x03	0.089588135
27	0xfc	-0.11945085
28	0x07	0.20903899
29	0x00	0.0
30	0xfc	-0.11945085
31	0x00	0.0
32	0xfc	-0.11945085
33	0x03	0.089588135
34	0x00	0.0
35	0xfe	-0.059725426
36	0x04	0.11945085
37	0xfb	-0.14931357
38	0xf4	-0.35835254
39	0xf8	-0.2389017
40	0x08	0.2389017
41	0xfd	-0.089588135
42	0xfa	-0.17917627
43	0xf6	-0.29862714
44	0x00	0.0
45	0x01	0.029862713
46	0x01	0.029862713
47	0x0a	0.29862714
48	0xf1	-0.4479407
49	0xfb	-0.14931357
50	0xf8	-0.2389017
51	0xf6	-0.29862714
52	0xfa	-0.17917627
53	0xf4	-0.35835254
54	0x01	0.029862713
55	0xf5	-0.32848984
56	0xf5	-0.32848984
57	0xf9	-0.20903899
58	0xfc	-0.11945085
59	0x0e	0.41807798
60	0x0d	0.38821527
61	0x01	0.029862713
62	0x03	0.089588135
63	0xff	-0.029862713
64	0x02	0.059725426
65	0xf6	-0.29862714
66	0x05	0.14931357
67	0xfd	-0.089588135
68	0xfc	-0.11945085
69	0x0c	0.35835254
70	0x05	0.14931357
71	0x00	0.0
72	0xff	-0.029862713
73	0xfd	-0.089588135
74	0xfd	-0.089588135
75	0xfa	-0.17917627
76	0xfa	-0.17917627
77	0x09	0.2687644
78	0xfa	-0.17917627
79	0x00	0.0
80	0xf8	-0.2389017
81	0xfa	-0.17917627
82	0xf6	-0.29862714
83	0xff	-0.029862713
84	0x07	0.20903899
85	0xfb	-0.14931357
86	0x07	0.20903899
87	0xfb	-0.14931357
88	0xff	-0.029862713
89	0x0f	0.4479407
90	0xf7	-0.2687644
91	0xf2	-0.41807798
92	0x08	0.2389017
93	0x07	0.20903899
94	0xf4	-0.35835254
95	0x16	0.6569797
96	0x02	0.059725426
97	0x03	0.089588135
98	0xfa	-0.17917627
99	0x01	0.029862713
100	0x05	0.14931357
101	0x00	0.0
102	0xfb	-0.14931357
103	0x04	0.11945085
104	0x03	0.089588135
105	0xee	-0.5375288
106	0x00	0.0
107	0xf9	-0.20903899
108	0xff	-0.029862713
109	0xfa	-0.17917627
110	0x05	0.14931357
111	0xfb	-0.14931357
112	0x03	0.089588135
113	0xfd	-0.089588135
114	0xfe	-0.059725426
115	0xfa	-0.17917627
116	0x02	0.059725426
117	0x0b	0.32848984
118	0xfb	-0.14931357
119	0x00	0.0
120	0xfc	-0.11945085
121	0x02	0.059725426
122	0x00	0.0
123	0xf4	-0.35835254
124	0x06	0.17917627
125	0xf2	-0.41807798
126	0x08	0.2389017
127	0xfc	-0.11945085
128	0xf1	-0.4479407
129	0xf9	-0.20903899
130	0x0c	0.35835254
131	0xfa	-0.17917627
132	0x06	0.17917627
133	0x03	0.089588135
134	0x05	0.14931357
135	0xf9	-0.20903899
136	0xff	-0.029862713
137	0x00	0.0
138	0xf7	-0.2687644
139	0x00	0.0
140	0x0c	0.35835254
141	0x04	0.11945085
142	0x04	0.11945085
143	0xf4	-0.35835254
144	0xfd	-0.089588135
145	0xff	-0.029862713
146	0xea	-0.6569797
147	0xef	-0.5076661
148	0xf9	-0.20903899
149	0x0a	0.29862714
150	0xf6	-0.29862714
151	0x01	0.029862713
152	0x07	0.20903899
153	0x11	0.5076661
154	0x00	0.0
155	0xff	-0.029862713
156	0x00	0.0
157	0xfa	-0.17917627
158	0xfb	-0.14931357
159	0xff	-0.029862713
160	0xff	-0.029862713
161	0x06	0.17917627
162	0x07	0.20903899
163	0x01	0.029862713
164	0x01	0.029862713
165	0x04	0.11945085
166	0x0e	0.41807798
167	0x09	0.2687644
168	0xee	-0.5375288
169	0x00	0.0
170	0xfe	-0.059725426
171	0x04	0.11945085
172	0xf7	-0.2687644
173	0xf8	-0.2389017
174	0xff	-0.029862713
175	0xfd	-0.089588135
176	0x0a	0.29862714
177	0xf9	-0.20903899
178	0x00	0.0
179	0x03	0.089588135
180	0x06	0.17917627
181	0x03	0.089588135
182	0x00	0.0
183	0x00	0.0
184	0x04	0.11945085
185	0x0b	0.32848984
186	0x19	0.74656785
187	0xff	-0.029862713
188	0x01	0.029862713
189	0x00	0.0
190	0x06	0.17917627
191	0xf8	-0.2389017
192	0x03	0.089588135
193	0x08	0.2389017
194	0xf7	-0.2687644
195	0x06	0.17917627
196	0x10	0.4778034
197	0xee	-0.5375288
198	0x07	0.20903899
199	0x04	0.11945085
200	0x0e	0.41807798
201	0xfc	-0.11945085
202	0xf8	-0.2389017
203	0x02	0.059725426
204	0x03	0.089588135
205	0xf6	-0.29862714
206	0xfe	-0.059725426
207	0xec	-0.5972543
208	0x06	0.17917627
209	0x14	0.5972543
210	0xfe	-0.059725426
211	0x04	0.11945085
212	0xfe	-0.059725426
213	0x03	0.089588135
214	0xf8	-0.2389017
215	0x08	0.2389017
216	0xff	-0.029862713
217	0x0d	0.38821527
218	0x11	0.5076661
219	0x07	0.20903899
220	0xfb	-0.14931357
221	0x01	0.029862713
222	0xfe	-0.059725426
223	0xff	-0.029862713
224	0x01	0.029862713
225	0x05	0.14931357
226	0xff	-0.029862713
227	0xfe	-0.059725426
228	0x0c	0.35835254
229	0x03	0.089588135
230	0x08	0.2389017
231	0x08	0.2389017
232	0x0d	0.38821527
233	0x13	0.5673916
234	0xff	-0.029862713
235	0x00	0.0
236	0xf5	-0.32848984
237	0x07	0.20903899
238	0xfc	-0.11945085
239	0xf3	-0.38821527
240	0x02	0.059725426
241	0xf9	-0.20903899
242	0xf2	-0.41807798
243	0x05	0.14931357
244	0xf6	-0.29862714
245	0xfc	-0.11945085
246	0x12	0.5375288
247	0xfd	-0.089588135
248	0x01	0.029862713
249	0xf2	-0.41807798
250	0x00	0.0
251	0x0e	0.41807798
252	0x02	0.059725426
253	0xfb	-0.14931357
254	0x04	0.11945085
255	0x03	0.089588135

functional_3/lstm_5/lstm_cell_5/MatMul_1 i1 [512, 128] scale=0.028901976 zero_point=0
0	0x07	0.20231383
1	0x0a	0.28901976
2	0xff	-0.028901976
3	0x0f	0.43352965
4	0x05	0.14450988
5	0x1a	0.7514514
6	0x13	0.54913753
7	0x01	0.028901976
8	0x02	0.05780395
9	0xda	-1.0982751
10	0xf1	-0.43352965
11	0x04	0.1156079
12	0xec	-0.5780395
13	0xf0	-0.4624316
14	0x03	0.08670592
15	0xf5	-0.31792173
16	0x0f	0.43352965
17	0x19	0.7225494
18	0x09	0.26011777
19	0xef	-0.49133357
20	0x0d	0.3757257
21	0xe7	-0.7225494
22	0xfc	-0.1156079
23	0xf3	-0.3757257
24	0xf7	-0.26011777
25	0x01	0.028901976
26	0xdb	-1.0693731
27	0x1b	0.78035337
28	0xf9	-0.20231383
29	0x13	0.54913753
30	0x02	0.05780395
31	0x0d	0.3757257
32	0x07	0.20231383
33	0x12	0.52023554
34	0xfe	-0.05780395
35	0x03	0.08670592
36	0x09	0.26011777
37	0x09	0.26011777
38	0xfd	-0.08670592
39	0x07	0.20231383
40	0x01	0.028901976
41	0x0d	0.3757257
42	0xf4	-0.3468237
43	0xf7	-0.26011777
44	0xff	-0.028901976
45	0x07	0.20231383
46	0x0b	0.31792173
47	0xf9	-0.20231383
48	0xfb	-0.14450988
49	0xff	-0.028901976
50	0xfc	-0.1156079
51	0x08	0.2312158
52	0x04	0.1156079
53	0x04	0.1156079
54	0x1f	0.8959612
55	0x0c	0.3468237
56	0x06	0.17341185
57	0x04	0.1156079
58	0xe5	-0.78035337
59	0x05	0.14450988
60	0x0f	0.43352965
61	0xfa	-0.17341185
62	0x0a	0.28901976
63	0x0a	0.28901976
64	0x00	0.0
65	0x00	0.0
66	0xf5	-0.31792173
67	0x01	0.028901976
68	0xf3	-0.3757257
69	0x0b	0.31792173
70	0xff	-0.028901976
71	0xdc	-1.0404711
72	0x09	0.26011777
73	0x08	0.2312158
74	0x1f	0.8959612
75	0x0f	0.43352965
76	0xfd	-0.08670592
77	0xfc	-0.1156079
78	0xfb	-0.14450988
79	0x08	0.2312158
80	0x14	0.5780395
81	0xfb	-0.14450988
82	0x02	0.05780395
83	0x10	0.4624316
84	0xee	-0.52023554
85	0xf4	-0.3468237
86	0xd8	-1.156079
87	0x00	0.0
88	0xfb	-0.14450988
89	0xf6	-0.28901976
90	0x12	0.52023554
91	0x02	0.05780395
92	0x01	0.028901976
93	0xf8	-0.2312158
94	0xfe	-0.05780395
95	0xf9	-0.20231383
96	0x0e	0.40462765
97	0xe7	-0.7225494
98	0xe9	-0.66474545
99	0xfd	-0.08670592
100	0xf8	-0.2312158
101	0xfd	-0.08670592
102	0xf1	-0.43352965
103	0x03	0.08670592
104	0xff	-0.028901976
105	0x05	0.14450988
106	0x0a	0.28901976
107	0x07	0.20231383
108	0xf7	-0.26011777
109	0x0f	0.43352965
110	0xef	-0.49133357
111	0x06	0.17341185
112	0x0a	0.28901976
113	0xe7	-0.7225494
114	0xef	-0.49133357
115	0xf6	-0.28901976
116	0xce	-1.4450988
117	0x04	0.1156079
118	0x12	0.52023554
119	0x03	0.08670592
120	0x04	0.1156079
121	0xfd	-0.08670592
122	0xf9	-0.20231383
123	0x0b	0.31792173
124	0xef	-0.49133357
125	0x23	1.0115691
126	0xfb	-0.14450988
127	0x09	0.26011777
128	0xe6	-0.7514514
129	0xd6	-1.2138829
130	0xf3	-0.3757257
131	0xea	-0.63584346
132	0xf9	-0.20231383
133	0x09	0.26011777
134	0x0d	0.3757257
135	0xed	-0.54913753
136	0x07	0.20231383
137	0xfe	-0.05780395
138	0xf4	-0.3468237
139	0x06	0.17341185
140	0xfc	-0.1156079
141	0x05	0.14450988
142	0x07	0.20231383
143	0x0a	0.28901976
144	0xf0	-0.4624316
145	0x09	0.26011777
146	0x02	0.05780395
147	0xfb	-0.14450988
148	0x17	0.66474545
149	0x18	0.6936474
150	0x09	0.26011777
151	0x06	0.17341185
152	0xf4	-0.3468237
153	0x06	0.17341185
154	0xfe	-0.05780395
155	0xf1	-0.43352965
156	0x02	0.05780395
157	0xe5	-0.78035337
158	0xfa	-0.17341185
159	0x11	0.49133357
160	0x08	0.2312158
161	0x00	0.0
162	0x0c	0.3468237
163	0x03	0.08670592
164	0x04	0.1156079
165	0x05	0.14450988
166	0xf5	-0.31792173
167	0x13	0.54913753
168	0x0b	0.31792173
169	0xfb	-0.14450988
170	0x01	0.028901976
171	0xf2	-0.40462765
172	0x00	0.0
173	0x08	0.2312158
174	0x09	0.26011777
175	0xf4	-0.3468237
176	0xfc	-0.1156079
177	0xf1	-0.43352965
178	0x13	0.54913753
179	0xfd	-0.08670592
180	0x03	0.08670592
181	0x01	0.028901976
182	0xe8	-0.6936474
183	0x05	0.14450988
184	0xf8	-0.2312158
185	0xfe	-0.05780395
186	0x00	0.0
187	0xf5	-0.31792173
188	0x09	0.26011777
189	0x03	0.08670592
190	0x14	0.5780395
191	0xeb	-0.60694146
192	0x09	0.26011777
193	0x03	0.08670592
194	0x0d	0.3757257
195	0xf9	-0.20231383
196	0xef	-0.49133357
197	0x09	0.26011777
198	0xf0	-0.4624316
199	0x0b	0.31792173
200	0x11	0.49133357
201	0x13	0.54913753
202	0xf9	-0.20231383
203	0xf7	-0.26011777
204	0x09	0.26011777
205	0x0b	0.31792173
206	0x07	0.20231383
207	0x07	0.20231383
208	0xfe	-0.05780395
209	0xff	-0.028901976
210	0xf6	-0.28901976
211	0xfb	-0.14450988
212	0x11	0.49133357
213	0xea	-0.63584346
214	0x0a	0.28901976
215	0x07	0.20231383
216	0x0c	0.3468237
217	0xf6	-0.28901976
218	0x03	0.08670592
219	0xf3	-0.3757257
220	0x24	1.0404711
221	0xfa	-0.17341185
222	0xf8	-0.2312158
223	0xfa	-0.17341185
224	0x0f	0.43352965
225	0x03	0.08670592
226	0x06	0.17341185
227	0xf7	-0.26011777
228	0xf8	-0.2312158
229	0xfb	-0.14450988
230	0x0f	0.43352965
231	0x0a	0.28901976
232	0xfd	-0.08670592
233	0x00	0.0
234	0x09	0.26011777
235	0x1b	0.78035337
236	0xfe	-0.05780395
237	0x07	0.20231383
238	0x0b	0.31792173
239	0xfd	-0.08670592
240	0x08	0.2312158
241	0x09	0.26011777
242	0xf3	-0.3757257
243	0x00	0.0
244	0x1b	0.78035337
245	0x0d	0.3757257
246	0x0a	0.28901976
247	0x06	0.17341185
248	0xeb	-0.60694146
249	0xee	-0.52023554
250	0x08	0.2312158
251	0xfc	-0.1156079
252	0x03	0.08670592
253	0xfb	-0.14450988
254	0x05	0.14450988
255	0x07	0.20231383

MatMul;functional_3/lstm_4/lstm_cell_4/StatefulPartitionedCall/MatMul i1 [512, 257] scale=0.040950283 zero_point=0
0	0xfd	-0.12285085
1	0xfc	-0.16380113
2	0x02	0.08190057
3	0xff	-0.040950283
4	0x01	0.040950283
5	0xfd	-0.12285085
6	0xfe	-0.08190057
7	0xfd	-0.12285085
8	0xf9	-0.28665197
9	0xfc	-0.16380113
10	0xfc	-0.16380113
11	0xf9	-0.28665197
12	0x00	0.0
13	0xfc	-0.16380113
14	0x07	0.28665197
15	0x06	0.2457017
16	0x0c	0.4914034
17	0xfa	-0.2457017
18	0x06	0.2457017
19	0xf5	-0.4504531
20	0x03	0.12285085
21	0x04	0.16380113
22	0x08	0.32760227
23	0xfc	-0.16380113
24	0x01	0.040950283
25	0xfd	-0.12285085
26	0x01	0.040950283
27	0x07	0.28665197
28	0x01	0.040950283
29	0xfd	-0.12285085
30	0xff	-0.040950283
31	0x01	0.040950283
32	0x01	0.040950283
33	0x00	0.0
34	0xff	-0.040950283
35	0x04	0.16380113
36	0x03	0.12285085
37	0xfe	-0.08190057
38	0xfe	-0.08190057
39	0xfb	-0.20475142
40	0x02	0.08190057
41	0x03	0.12285085
42	0x00	0.0
43	0xff	-0.040950283
44	0xff	-0.040950283
45	0x01	0.040950283
46	0xfd	-0.12285085
47	0x01	0.040950283
48	0x02	0.08190057
49	0xfd	-0.12285085
50	0x02	0.08190057
51	0xfe	-0.08190057
52	0xfe	-0.08190057
53	0x00	0.0
54	0xff	-0.040950283
55	0xff	-0.040950283
56	0xfe	-0.08190057
57	0xfd	-0.12285085
58	0x00	0.0
59	0x01	0.040950283
60	0x00	0.0
61	0xfd	-0.12285085
62	0xfe	-0.08190057
63	0xff	-0.040950283
64	0x02	0.08190057
65	0xff	-0.040950283
66	0x01	0.040950283
67	0x01	0.040950283
68	0xfe	-0.08190057
69	0x02	0.08190057
70	0xfe	-0.08190057
71	0xfd	-0.12285085
72	0x01	0.040950283
73	0x00	0.0
74	0xfd	-0.12285085
75	0xfe	-0.08190057
76	0x00	0.0
77	0x02	0.08190057
78	0x01	0.040950283
79	0xff	-0.040950283
80	0x02	0.08190057
81	0xff	-0.040950283
82	0x05	0.20475142
83	0x01	0.040950283
84	0x00	0.0
85	0x02	0.08190057
86	0xfe	-0.08190057
87	0xff	-0.040950283
88	0x03	0.12285085
89	0xfd	-0.12285085
90	0xfe	-0.08190057
91	0xff	-0.040950283
92	0x00	0.0
93	0x01	0.040950283
94	0x01	0.040950283
95	0x03	0.12285085
96	0x01	0.040950283
97	0xfb	-0.20475142
98	0xfd	-0.12285085
99	0x02	0.08190057
100	0x01	0.040950283
101	0x02	0.08190057
102	0x01	0.040950283
103	0x02	0.08190057
104	0xfe	-0.08190057
105	0x02	0.08190057
106	0x01	0.040950283
107	0x03	0.12285085
108	0x00	0.0
109	0x05	0.20475142
110	0x02	0.08190057
111	0xff	-0.040950283
112	0x02	0.08190057
113	0x03	0.12285085
114	0xff	-0.040950283
115	0xfb	-0.20475142
116	0x04	0.16380113
117	0x02	0.08190057
118	0x03	0.12285085
119	0xff	-0.040950283
120	0x01	0.040950283
121	0x03	0.12285085
122	0xff	-0.040950283
123	0xfd	-0.12285085
124	0x03	0.12285085
125	0xfe	-0.08190057
126	0xfc	-0.16380113
127	0xff	-0.040950283
128	0x01	0.040950283
129	0xfe	-0.08190057
130	0xfb	-0.20475142
131	0x00	0.0
132	0xfc	-0.16380113
133	0x03	0.12285085
134	0x05	0.20475142
135	0x00	0.0
136	0x04	0.16380113
137	0xfa	-0.2457017
138	0x02	0.08190057
139	0x03	0.12285085
140	0x00	0.0
141	0x00	0.0
142	0x01	0.040950283
143	0x02	0.08190057
144	0x01	0.040950283
145	0x01	0.040950283
146	0x01	0.040950283
147	0x03	0.12285085
148	0xff	-0.040950283
149	0xfd	-0.12285085
150	0xfe	-0.08190057
151	0x05	0.20475142
152	0x05	0.20475142
153	0x01	0.040950283
154	0x02	0.08190057
155	0x01	0.040950283
156	0x01	0.040950283
157	0xfd	-0.12285085
158	0x01	0.040950283
159	0x01	0.040950283
160	0x01	0.040950283
161	0x01	0.040950283
162	0x05	0.20475142
163	0x01	0.040950283
164	0x03	0.12285085
165	0x06	0.2457017
166	0x01	0.040950283
167	0x01	0.040950283
168	0xff	-0.040950283
169	0x05	0.20475142
170	0x07	0.28665197
171	0xfe	-0.08190057
172	0x02	0.08190057
173	0xfc	-0.16380113
174	0xfc	-0.16380113
175	0x05	0.20475142
176	0xff	-0.040950283
177	0x07	0.28665197
178	0x02	0.08190057
179	0xff	-0.040950283
180	0x02	0.08190057
181	0xff	-0.040950283
182	0xff	-0.040950283
183	0x01	0.040950283
184	0x08	0.32760227
185	0x07	0.28665197
186	0x04	0.16380113
187	0x05	0.20475142
188	0x05	0.20475142
189	0x04	0.16380113
190	0x06	0.2457017
191	0x01	0.040950283
192	0x01	0.040950283
193	0xfe	-0.08190057
194	0x03	0.12285085
195	0x05	0.20475142
196	0x00	0.0
197	0x03	0.12285085
198	0x07	0.28665197
199	0xff	-0.040950283
200	0x02	0.08190057
201	0xff	-0.040950283
202	0x03	0.12285085
203	0x01	0.040950283
204	0x00	0.0
205	0x05	0.20475142
206	0x03	0.12285085
207	0xff	-0.040950283
208	0xfd	-0.12285085
209	0x00	0.0
210	0xfd	-0.12285085
211	0xff	-0.040950283
212	0x04	0.16380113
213	0x08	0.32760227
214	0x01	0.040950283
215	0x04	0.16380113
216	0x04	0.16380113
217	0x01	0.040950283
218	0x05	0.20475142
219	0xfb	-0.20475142
220	0xfe	-0.08190057
221	0x05	0.20475142
222	0x04	0.16380113
223	0x01	0.040950283
224	0xff	-0.040950283
225	0xff	-0.040950283
226	0x04	0.16380113
227	0x08	0.32760227
228	0x01	0.040950283
229	0x00	0.0
230	0x04	0.16380113
231	0x02	0.08190057
232	0xfd	-0.12285085
233	0x03	0.12285085
234	0xfe	-0.08190057
235	0x02	0.08190057
236	0x01	0.040950283
237	0x01	0.040950283
238	0x00	0.0
239	0xff	-0.040950283
240	0x00	0.0
241	0x01	0.040950283
242	0xfc	-0.16380113
243	0x00	0.0
244	0x00	0.0
245	0x01	0.040950283
246	0xfe	-0.08190057
247	0x05	0.20475142
248	0xff	-0.040950283
249	0xfa	-0.2457017
250	0x01	0.040950283
251	0xfc	-0.16380113
252	0xfc	-0.16380113
253	0xf5	-0.4504531
254	0xf1	-0.61425424
255	0xf2	-0.57330394

MatMul_1;functional_3/lstm_4/lstm_cell_4/StatefulPartitionedCall/MatMul_1 i1 [512, 128] scale=0.044784833 zero_point=0
0	0x10	0.7165573
1	0x06	0.268709
2	0x08	0.35827866
3	0xff	-0.044784833
4	0xff	-0.044784833
5	0xfc	-0.17913933
6	0x03	0.1343545
7	0xff	-0.044784833
8	0xfb	-0.22392416
9	0xff	-0.044784833
10	0xfe	-0.089569665
11	0x02	0.089569665
12	0x03	0.1343545
13	0xfe	-0.089569665
14	0x01	0.044784833
15	0x0d	0.58220285
16	0xeb	-0.9404815
17	0xff	-0.044784833
18	0x02	0.089569665
19	0xff	-0.044784833
20	0x04	0.17913933
21	0xfe	-0.089569665
22	0x14	0.89569664
23	0xf9	-0.31349382
24	0x06	0.268709
25	0xfc	-0.17913933
26	0x03	0.1343545
27	0x04	0.17913933
28	0x02	0.089569665
29	0xfa	-0.268709
30	0xfa	-0.268709
31	0x02	0.089569665
32	0xea	-0.9852663
33	0x07	0.31349382
34	0x0e	0.62698764
35	0xfc	-0.17913933
36	0x07	0.31349382
37	0xff	-0.044784833
38	0xfb	-0.22392416
39	0xfb	-0.22392416
40	0x00	0.0
41	0xff	-0.044784833
42	0xfb	-0.22392416
43	0xff	-0.044784833
44	0xfb	-0.22392416
45	0x11	0.76134217
46	0xfb	-0.22392416
47	0x09	0.4030635
48	0xfd	-0.1343545
49	0x08	0.35827866
50	0xfe	-0.089569665
51	0x00	0.0
52	0xf1	-0.6717725
53	0xf7	-0.4030635
54	0xff	-0.044784833
55	0x00	0.0
56	0x02	0.089569665
57	0xe8	-1.074836
58	0xf8	-0.35827866
59	0xfb	-0.22392416
60	0x12	0.806127
61	0x05	0.22392416
62	0x07	0.31349382
63	0xfc	-0.17913933
64	0xfe	-0.089569665
65	0x04	0.17913933
66	0xff	-0.044784833
67	0xf2	-0.62698764
68	0x01	0.044784833
69	0x0b	0.49263316
70	0x14	0.89569664
71	0xfc	-0.17913933
72	0x01	0.044784833
73	0xfb	-0.22392416
74	0x05	0.22392416
75	0x0b	0.49263316
76	0x17	1.0300511
77	0xff	-0.044784833
78	0xff	-0.044784833
79	0x04	0.17913933
80	0xf3	-0.58220285
81	0x03	0.1343545
82	0xf9	-0.31349382
83	0x04	0.17913933
84	0x04	0.17913933
85	0x05	0.22392416
86	0x09	0.4030635
87	0x08	0.35827866
88	0xf3	-0.58220285
89	0x00	0.0
90	0x04	0.17913933
91	0x02	0.089569665
92	0x03	0.1343545
93	0xff	-0.044784833
94	0xf3	-0.58220285
95	0x0c	0.537418
96	0x07	0.31349382
97	0xf5	-0.49263316
98	0xfb	-0.22392416
99	0xff	-0.044784833
100	0x04	0.17913933
101	0x02	0.089569665
102	0xee	-0.806127
103	0x10	0.7165573
104	0x04	0.17913933
105	0xf6	-0.44784832
106	0x11	0.76134217
107	0xee	-0.806127
108	0x07	0.31349382
109	0x03	0.1343545
110	0x02	0.089569665
111	0xfd	-0.1343545
112	0xfe	-0.089569665
113	0xfa	-0.268709
114	0xfd	-0.1343545
115	0x0a	0.44784832
116	0x08	0.35827866
117	0xf8	-0.35827866
118	0x0a	0.44784832
119	0x0a	0.44784832
120	0xf8	-0.35827866
121	0xff	-0.044784833
122	0x08	0.35827866
123	0x13	0.8509118
124	0xf7	-0.4030635
125	0xf6	-0.44784832
126	0xf4	-0.537418
127	0xd6	-1.880963
128	0xf5	-0.49263316
129	0x12	0.806127
130	0x04	0.17913933
131	0x00	0.0
132	0xfb	-0.22392416
133	0x08	0.35827866
134	0xf9	-0.31349382
135	0xed	-0.8509118
136	0xf9	-0.31349382
137	0xfa	-0.268709
138	0xff	-0.044784833
139	0x01	0.044784833
140	0x0c	0.537418
141	0xfe	-0.089569665
142	0xfd	-0.1343545
143	0xfe	-0.089569665
144	0xfe	-0.089569665
145	0xfc	-0.17913933
146	0xee	-0.806127
147	0xfd	-0.1343545
148	0xf0	-0.7165573
149	0x00	0.0
150	0x05	0.22392416
151	0x04	0.17913933
152	0xf8	-0.35827866
153	0x02	0.089569665
154	0x00	0.0
155	0xf5	-0.49263316
156	0xfa	-0.268709
157	0x08	0.35827866
158	0x00	0.0
159	0xf9	-0.31349382
160	0xf7	-0.4030635
161	0xf8	-0.35827866
162	0xf9	-0.31349382
163	0x11	0.76134217
164	0x0b	0.49263316
165	0xeb	-0.9404815
166	0xf7	-0.4030635
167	0xf3	-0.58220285
168	0xde	-1.5226843
169	0x05	0.22392416
170	0x03	0.1343545
171	0x02	0.089569665
172	0xdc	-1.612254
173	0x02	0.089569665
174	0xf8	-0.35827866
175	0x03	0.1343545
176	0xff	-0.044784833
177	0xfd	-0.1343545
178	0x04	0.17913933
179	0x1b	1.2091905
180	0xea	-0.9852663
181	0xfd	-0.1343545
182	0xfc	-0.17913933
183	0xfd	-0.1343545
184	0x00	0.0
185	0x03	0.1343545
186	0xf9	-0.31349382
187	0xf9	-0.31349382
188	0xfe	-0.089569665
189	0xfb	-0.22392416
190	0x12	0.806127
191	0xf8	-0.35827866
192	0x08	0.35827866
193	0xf9	-0.31349382
194	0x08	0.35827866
195	0xf3	-0.58220285
196	0xf9	-0.31349382
197	0x06	0.268709
198	0x08	0.35827866
199	0x03	0.1343545
200	0x00	0.0
201	0xf8	-0.35827866
202	0xea	-0.9852663
203	0xfd	-0.1343545
204	0xff	-0.044784833
205	0xfc	-0.17913933
206	0xf9	-0.31349382
207	0xfe	-0.089569665
208	0x1e	1.343545
209	0xec	-0.89569664
210	0xf6	-0.44784832
211	0xf9	-0.31349382
212	0xee	-0.806127
213	0xfb	-0.22392416
214	0xfe	-0.089569665
215	0x11	0.76134217
216	0x20	1.4331146
217	0x03	0.1343545
218	0xf7	-0.4030635
219	0xfd	-0.1343545
220	0x00	0.0
221	0xf4	-0.537418
222	0x09	0.4030635
223	0x00	0.0
224	0x0f	0.6717725
225	0x1d	1.2987602
226	0x06	0.268709
227	0x15	0.9404815
228	0xfd	-0.1343545
229	0x09	0.4030635
230	0xf5	-0.49263316
231	0x03	0.1343545
232	0xf6	-0.44784832
233	0xf8	-0.35827866
234	0x06	0.268709
235	0x13	0.8509118
236	0x07	0.31349382
237	0x08	0.35827866
238	0x03	0.1343545
239	0xfc	-0.17913933
240	0x07	0.31349382
241	0xfe	-0.089569665
242	0xef	-0.76134217
243	0x02	0.089569665
244	0xfe	-0.089569665
245	0x02	0.089569665
246	0xf0	-0.7165573
247	0xf0	-0.7165573
248	0x03	0.1343545
249	0x0c	0.537418
250	0xf1	-0.6717725
251	0x00	0.0
252	0x0b	0.49263316
253	0x01	0.044784833
254	0x03	0.1343545
255	0xfc	-0.17913933
