pretrained_model/model_quant_2.tflite (tflite, 649456 bytes, 14 tensors)

functional_5/dense_3/BiasAdd/ReadVariableOp/resource f4 [256]
-0.2290702 -0.21857686 -0.23363204 -0.2448474 -0.28092542 -0.25505844 -0.2636625 -0.21248475
-0.24340065 -0.21812297 -0.23409636 -0.2336367 -0.2268267 -0.2461554 -0.23518553 -0.24061999
-0.27976346 -0.28118446 -0.24697496 -0.24517713 -0.262884 -0.22576138 -0.25144893 -0.1579744
-0.25517717 -0.24592796 -0.17885329 -0.31618965 -0.16716546 -0.21478635 -0.24033523 -0.25028265
-0.26677623 -0.27478838 -0.22447902 -0.22962028 -0.19651748 -0.20034972 -0.21328719 -0.26321197
-0.24597229 -0.21143346 -0.30424118 -0.23093943 -0.21672948 -0.260804 -0.25240928 -0.2618604
-0.25871825 -0.25116587 -0.22199106 -0.24813125 -0.23199123 -0.25531206 -0.24465947 -0.24571703
-0.21340911 -0.22024891 -0.20457345 -0.271693 -0.2603397 -0.23929253 -0.22383209 -0.2428272
-0.23921266 -0.24582027 -0.24981818 -0.24361 -0.23611343 -0.21994202 -0.24260566 -0.41559145
-0.2138785 -0.24534616 -0.26771274 -0.21194634 -0.22863428 -0.21706715 -0.20547818 -0.20703806
-0.2265035 -0.3406173 -0.22654681 -0.250171 -0.2633642 -0.22168937 -0.26635265 -0.23086627
-0.26224884 -0.2596094 -0.31601813 -0.2502327 -0.23801214 -0.24073052 -0.23482892 -0.21823174
-0.26967555 -0.23355366 -0.2933854 -0.24622108 -0.20549132 -0.21674395 -0.2540958 -0.19292204
-0.2484368 -0.15600371 -0.23795593 -0.23950514 -0.23887824 -0.23603174 -0.2213433 -0.26868588
-0.24927627 -0.30040947 -0.24286772 -0.24084 -0.22122397 -0.2516268 -0.236258 -0.23601355
-0.24139297 -0.24462962 -0.23841229 -0.24089348 -0.22616439 -0.24027778 -0.36975732 -0.249494
-0.23914625 -0.23580135 -0.25589734 -0.2466785 -0.2323615 -0.23747802 -0.2697444 -0.23033118
-0.2615396 -0.22763035 -0.22701146 -0.25702032 -0.24384925 -0.21293698 -0.23107073 -0.20988671
-0.22449885 -0.22493103 -0.22305258 -0.25805128 -0.25241026 -0.2588001 -0.22517814 -0.23683815
-0.2339663 -0.26004246 -0.24026045 -0.24813022 -0.2378742 -0.21178243 -0.23995791 -0.2399873
-0.25837418 -0.2618616 -0.23184785 -0.37053668 -0.24030532 -0.24222241 -0.22915728 -0.23998216
-0.24937493 -0.20839098 -0.2624265 -0.25121146 -0.22359034 -0.25522017 -0.2593405 -0.24561033
-0.2343326 -0.2632957 -0.23433666 -0.23975062 -0.25870848 -0.2109599 -0.24632731 -0.2454284
-0.250463 -0.2162567 -0.23600155 -0.21166022 -0.22011665 -0.26955315 -0.24589989 -0.24642056
-0.22584312 -0.2564839 -0.20337453 -0.23475046 -0.24528474 -0.28097102 -0.22582707 -0.26039383
-0.26555508 -0.26256382 -0.23739734 -0.2540125 -0.23372816 -0.25814873 -0.23866911 -0.25275967
-0.2654693 -0.2385233 -0.22216555 -0.2508989 -0.24232908 -0.23964447 -0.24893512 -0.24602786
-0.21206695 -0.24728772 -0.23886374 -0.30544043 -0.26558483 -0.25149834 -0.24169308 -0.23361225
-0.20906486 -0.24632056 -0.25262123 -0.2170033 -0.2357172 -0.223558 -0.2577331 -0.23284632
-0.2598007 -0.23481627 -0.24830058 -0.2002675 -0.22992596 -0.25471407 -0.24256277 -0.22137244
-0.21873721 -0.25241214 -0.23164828 -0.25456724 -0.2452496 -0.22962156 -0.23983172 -0.2154895
-0.24958853 -0.22381237 -0.27691898 -0.25879604 -0.25223824 -0.23920822 -0.30256805 -0.21696918
00000000: 6191 6abe 9dd2 5fbe 3d3d 6fbe 47b9 7abe
00000010: 75d5 8fbe 0597 82be c5fe 86be 9a95 59be
00000020: 053e 79be a15b 5fbe f5b6 6fbe 763e 6fbe
00000030: 4245 68be 2910 7cbe 7ad4 70be 1665 76be
00000040: 283d 8fbe 69f7 8fbe 01e7 7cbe b70f 7bbe
00000050: bb98 86be fe2d 67be eabd 80be 0bc4 21be
00000060: 95a6 82be 8ad4 7bbe 5125 37be 9ce3 a1be
00000070: 6c2d 2bbe f4f0 5bbe 701a 76be 0c25 80be
00000080: e596 88be 10b1 8cbe d4dd 65be 9421 6bbe
00000090: e13b 49be 7a28 4dbe f567 5abe b8c3 86be
000000a0: 29e0 7bbe 0382 58be 80c5 9bbe 637b 6cbe
000000b0: 55ee 5dbe 1a88 85be ca3b 81be 9112 86be
000000c0: b876 84be d098 80be a051 63be 1e16 7ebe
000000d0: 1c8f 6dbe 43b8 82be 0388 7abe 3f9d 7bbe
000000e0: eb87 5abe ee88 61be b47b 51be 581b 8bbe
000000f0: 3f4b 85be 1a09 75be 3d34 65be b2a7 78be
00000100: 2af4 74be 4fb8 7bbe 56d0 7fbe e674 79be
00000110: b8c7 71be 7b38 61be 9e6d 78be 67c8 d4be
00000120: f702 5bbe 063c 7bbe a511 89be 7608 59be
00000130: 1b1f 6abe da46 5ebe df68 52be c901 54be
00000140: 89f0 67be 6465 aebe e3fb 67be 6a16 80be
00000150: acd7 86be 8a02 63be 605f 88be 3568 6cbe
00000160: 7b45 86be 86eb 84be 21cd a1be 801e 80be
00000170: 74b9 73be 1082 76be fe76 70be 2478 5fbe
00000180: ea12 8abe b128 6fbe 9c36 96be 6121 7cbe
00000190: 516c 52be 20f2 5dbe d818 82be 5b8d 45be
000001a0: 3766 7ebe 70bf 1fbe b8aa 73be d640 75be
000001b0: 7f9c 74be 4eb2 71be d1a7 62be 3291 89be
000001c0: 4742 7fbe 45cf 99be 51b2 78be c39e 76be
000001d0: 8988 62be 3ad5 80be 9eed 71be 89ad 71be
000001e0: b82f 77be 3080 7abe 5a22 74be c8ac 76be
000001f0: a397 67be 610b 76be d550 bdbe 5b7b 7fbe
00000200: c1e2 74be e975 71be fa04 83be 4a99 7cbe
00000210: 2cf0 6dbe 702d 73be f01b 8abe f0db 6bbe
00000220: 85e8 85be ee17 69be b175 68be 2b98 83be
00000230: 9eb3 79be 270c 5abe ce9d 6cbe 8bec 56be
00000240: 07e3 65be 5254 66be e567 64be 4c1f 84be
00000250: eb3b 81be 7281 84be 1995 66be b385 72be
00000260: dd94 6fbe 4924 85be d606 76be d915 7ebe
00000270: 4b95 73be 7edd 58be 87b7 75be 3bbf 75be
00000280: 9f49 84be b912 86be 8669 6dbe fcb6 bdbe
00000290: 9912 76be 2709 78be 35a8 6abe e2bd 75be
000002a0: 245c 7fbe 7264 55be c45c 86be ca9e 80be
000002b0: def4 64be 38ac 82be 47c8 84be 4681 7bbe
000002c0: e3f4 6fbe b2ce 86be f3f5 6fbe 3081 75be
000002d0: 7075 84be df05 58be 3a3d 7cbe 9551 7bbe
000002e0: b03c 80be 6572 5dbe 64aa 71be 75bd 58be
000002f0: 4266 61be df02 8abe 2ecd 7bbe ac55 7cbe
00000300: 6b43 67be dc51 83be 6a41 50be 6d62 70be
00000310: ec2b 7bbe 6fdb 8fbe 363f 67be 5752 85be
00000320: d6f6 87be c46e 86be 4a18 73be ed0d 82be
00000330: 6f56 6fbe 122c 84be ad65 74be b769 81be
00000340: 98eb 87be 743f 74be 5e7f 63be d275 80be
00000350: 1d25 78be 5c65 75be d9e8 7ebe baee 7bbe
00000360: 1428 59be fe38 7dbe b298 74be b062 9cbe
00000370: bcfa 87be 64c4 80be 647e 77be 0d38 6fbe
00000380: 1915 56be 753b 7cbe 9257 81be 1d36 5ebe
00000390: da5f 71be 63ec 64be 98f5 83be 446f 6ebe
000003a0: 9904 85be ad73 70be 8242 7ebe ec12 4dbe
000003b0: b671 6bbe e269 82be 6062 78be 75af 62be
000003c0: a6fc 5fbe 2a3c 81be 3535 6dbe a356 82be
000003d0: b622 7bbe ea21 6bbe 7296 75be 48a9 5cbe
000003e0: 2394 7fbe 122f 65be 53c8 8dbe ea80 84be
000003f0: 5f25 81be 00f3 74be 33ea 9abe 2b2d 5ebe

functional_5/instant_layer_normalization_1/3741 f4 [256]
0.23338977 0.37222534 0.25886205 0.3154168 0.2276588 0.29289305 0.2498549 0.20082566
0.29395318 0.21680725 0.41557515 0.27614656 0.27447304 0.1757799 0.30074945 0.20515718
0.27074045 0.3099559 0.33078384 0.4732976 0.23464034 0.2523441 0.2399461 0.4602134
0.21533626 0.24204387 0.45370752 0.29380217 0.31687412 0.2669293 0.32040817 0.23550768
0.26179352 0.30090246 0.24547766 0.20383 0.19513546 0.37681785 0.2866679 0.34571424
0.2146213 0.22138052 0.16823004 0.29510978 0.21625462 0.23343827 0.3615915 0.28945553
0.29278162 0.32286742 0.26631334 0.25641003 0.25296438 0.23334873 0.27501723 0.25430545
0.231676 0.35631958 0.27509975 0.34292543 0.18572685 0.32604265 0.2975787 0.18089893
0.24279769 0.2453355 0.24007884 0.2319055 0.23480542 0.26069126 0.30149233 0.25714317
0.22708082 0.35398093 0.23909374 0.23669988 0.19929987 0.23491658 0.24176872 0.47438744
0.23011842 0.36749122 0.23831496 0.21783337 0.25817537 0.24322616 0.25325575 0.28424925
0.31371206 0.20388077 0.2176139 0.32633767 0.22167276 0.37011114 0.22857001 0.2748807
0.15373905 0.240961 0.15441433 0.26778924 0.24138403 0.2583754 0.2817328 0.48892304
0.24079789 0.4666155 0.23157746 0.27202728 0.26455653 0.20505282 0.2588309 0.25333095
0.24952859 0.37286225 0.2533194 0.22233765 0.27623388 0.25466502 0.3385795 0.2143558
0.24098286 0.20056093 0.24968486 0.23634541 0.2593476 0.25242108 0.26446736 0.2262452
0.27024174 0.29433265 0.2718858 0.26816416 0.19841513 0.31843832 0.28047472 0.21709925
0.3229501 0.24108326 0.2641018 0.25028977 0.38630095 0.3104818 0.17636508 0.27233714
0.24590193 0.18897648 0.20584245 0.22297063 0.29434 0.26667574 0.29745078 0.28009298
0.29704583 0.27213797 0.23393948 0.23135802 0.25943145 0.24542478 0.34084192 0.2503265
0.1923699 0.27451193 0.25025648 0.22727054 0.26476443 0.21121217 0.23420867 0.21471523
0.36150247 0.2485821 0.31215087 0.22916026 0.2749768 0.23580982 0.29791278 0.25219488
0.31830144 0.23942818 0.24570005 0.25849193 0.23852639 0.28725985 0.2559822 0.2539651
0.22963153 0.21213877 0.25374854 0.2895511 0.26342386 0.2533551 0.2827941 0.28237864
0.25089234 0.29543847 0.22413547 0.22192208 0.28380662 0.38127065 0.2814381 0.24319568
0.26146057 0.27882186 0.26411632 0.2207499 0.38938758 0.2942042 0.2675866 0.3434648
0.24069206 0.35271347 0.23219381 0.3025086 0.23194185 0.25230533 0.23452403 0.22543767
0.22457372 0.20991804 0.23734517 0.14052826 0.3067183 0.3213286 0.2585517 0.27533063
0.3171719 0.33730695 0.22024164 0.22799636 0.21646152 0.23257075 0.19292858 0.32647535
0.24818279 0.25182548 0.23652881 0.33964583 0.24741986 0.2304107 0.4125431 0.22014926
0.25775295 0.22752346 0.2418496 0.239155 0.3390762 0.2994111 0.27828857 0.33960748
0.37881786 0.2680772 0.3171485 0.26225567 0.22992818 0.33731842 0.32261598 0.24187891
00000000: bafd 6e3e 5294 be3e 9189 843e 507e a13e
00000010: 631f 693e 14f6 953e f7d9 7f3e 3ea5 4d3e
00000020: 0881 963e b802 5e3e 44c6 d43e 1563 8d3e
00000030: bb87 8c3e a5ff 333e d5fb 993e b914 523e
00000040: 7e9e 8a3e 8ab2 9e3e 805c a93e 1054 f23e
00000050: 8f45 703e 3f33 813e 6eb4 753e 17a1 eb3e
00000060: 1c81 5c3e 59da 773e 5a4c e83e 3d6d 963e
00000070: 533d a23e f5aa 883e 8a0c a43e ed28 713e
00000080: cd09 863e e30f 9a3e 7f5e 7b3e d0b8 503e
00000090: 97d1 473e 45ee c03e 23c6 923e 7501 b13e
000000a0: b0c5 5b3e 93b1 623e 7f44 2c3e a118 973e
000000b0: da71 5d3e 710a 6f3e 8522 b93e 8433 943e
000000c0: 79e7 953e e14e a53e 395a 883e 2d48 833e
000000d0: 8c84 813e f8f2 6e3e 0fcf 8c3e 5334 823e
000000e0: 793c 6d3e 856f b63e e0d9 8c3e ec93 af3e
000000f0: 2e2f 3e3e 10ef a63e 3c5c 983e 923d 393e
00000100: f59f 783e 3b39 7b3e 3ad7 753e a378 6d3e
00000110: d570 703e 5379 853e 345d 9a3e 45a8 833e
00000120: e087 683e fd3c b53e fdd4 743e 7461 723e
00000130: 4415 4c3e f98d 703e 3892 773e e9e2 f23e
00000140: 2aa4 6b3e cf27 bc3e d608 743e b60f 5f3e
00000150: 902f 843e 4710 793e bdaa 813e 1e89 913e
00000160: de9e a03e 1fc6 503e 2ed6 5e3e bb15 a73e
00000170: 2ffe 623e 357f bd3e 420e 6a3e 2abd 8c3e
00000180: c56d 1d3e 7bbe 763e ca1e 1e3e ac1b 893e
00000190: 602d 773e c849 843e 483f 903e 1f54 fa3e
000001a0: b993 763e 3ae8 ee3e a422 6d3e 2947 8b3e
000001b0: f473 873e 5ef9 513e 7c85 843e 98b4 813e
000001c0: 6c84 7f3e cde7 be3e 15b3 813e 7bac 633e
000001d0: 876e 8d3e 7463 823e 4b5a ad3e 1680 5b3e
000001e0: 36c4 763e d85f 4d3e 63ad 7f3e 8804 723e
000001f0: 35c9 843e 563d 813e 4468 873e d2ac 673e
00000200: 205d 8a3e c5b2 963e 9e34 8b3e d04c 893e
00000210: 562d 4b3e 590a a33e 629a 8f3e 444f 5e3e
00000220: b759 a53e 88de 763e 5a38 873e fb25 803e
00000230: 3dc9 c53e 78f7 9e3e 0c99 343e c66f 8b3e
00000240: b7cd 7b3e 0d83 413e 5dc8 523e 6a52 643e
00000250: bcb3 963e b989 883e 784b 983e 5968 8f3e
00000260: 6416 983e ab55 8b3e d58d 6f3e 1ee9 6c3e
00000270: 33d4 843e a250 7b3e d582 ae3e cc2a 803e
00000280: 9dfc 443e d48c 8c3e 9e21 803e 9cb9 683e
00000290: 348f 873e 0148 583e 66d4 6f3e 4fde 5b3e
000002a0: da16 b93e 4e8c 7e3e 3dd2 9f3e fda8 6a3e
000002b0: c2c9 8c3e 2178 713e 0688 983e b01f 813e
000002c0: 68f8 a23e a92c 753e cb98 7b3e 0e59 843e
000002d0: 4340 743e b913 933e 1910 833e b707 823e
000002e0: 8724 6b3e e83a 593e 54eb 813e 0b40 943e
000002f0: 7edf 863e c2b7 813e 63ca 903e ef93 903e
00000300: f674 803e b643 973e c583 653e 8b3f 633e
00000310: 1a4f 913e e835 c33e a818 903e 4a08 793e
00000320: 29de 853e bdc1 8e3e 413a 873e 430c 623e
00000330: cf5d c73e efa1 963e 1c01 893e 9eda af3e
00000340: fb77 763e dc96 b43e 37c4 6d3e 68e2 9a3e
00000350: 2a82 6d3e 2a2e 813e 1127 703e 22d9 663e
00000360: a7f6 653e c1f4 563e 9d0a 733e a4e6 0f3e
00000370: 2e0a 9d3e 2f85 a43e e360 843e 23f8 8c3e
00000380: 5b64 a23e 7fb3 ac3e 0687 613e e177 693e
00000390: 17a8 5d3e 0727 6e3e 128f 453e c727 a73e
000003a0: a123 7e3e 45ef 803e 9c34 723e 0fe6 ad3e
000003b0: a25b 7d3e c8f0 6b3e d938 d33e cf6e 613e
000003c0: 32f8 833e e9fb 683e 6ca7 773e 0ce5 743e
000003d0: 659b ad3e 694c 993e d77b 8e3e 08e1 ad3e
000003e0: 6af4 c13e 6a41 893e 4a61 a23e 6046 863e
000003f0: 4b72 6b3e 00b5 ac3e ec2d a53e 1baf 773e

functional_5/instant_layer_normalization_1/3743 f4 [256]
-0.02543579 0.0066509205 -0.0016137882 0.07981001 -0.070539795 -0.023909442 0.005390716 0.0005680646
0.05375292 0.01736761 -0.043507874 0.03024078 -0.0040036277 -0.006804148 0.012554365 0.006235311
-0.063181624 -0.055894434 -0.06517343 0.036773693 0.01648193 0.0019717992 0.03090168 -0.005051394
-0.03477735 -0.0009111597 0.09118489 -0.020570502 0.1201259 0.0012700479 -0.12885392 -0.019061757
0.010277155 0.019907098 -0.0003311561 0.06868835 0.028870352 0.03193609 -0.012928022 0.06555307
-0.013101629 -0.05461128 -0.007926532 0.025306037 0.0015187645 0.0118855825 0.033250894 -0.0010641787
-0.03059728 0.024461163 0.028114667 -0.010388492 0.012240511 -0.012593334 -0.007659911 0.010399039
0.017379379 0.010281919 -0.018232213 -0.10358135 -0.008711213 -0.06314164 0.0035175544 0.0039641685
-0.015840493 0.004930058 0.02154041 -0.012104971 -0.0045661535 -0.014474943 0.0191993 -0.008621939
-0.00620856 -0.104814634 0.004152488 -0.004293996 0.0029541752 0.05630065 -0.016645797 -0.02221099
0.01917463 -0.07968246 -0.025004199 0.019747244 -0.0018043877 0.010413752 0.0075572548 -0.0061425865
0.030927593 -0.00086920284 0.020704145 -0.009899859 0.0017664914 -0.021142455 0.0037438897 0.030017871
-0.022154648 -0.007973524 -0.011685065 0.010468708 0.031728044 0.000334742 -0.0074990857 -0.008378151
0.0032685872 0.016468346 -0.09171033 0.011145276 -0.017137328 -0.02422163 0.037561733 -0.0035892972
0.0068173823 -0.066378586 -0.034891624 0.008909698 -0.0025262197 0.082037166 0.016882716 0.02351092
-0.021479523 -0.0394462 0.022694517 0.0048709647 0.0026167934 -0.030910049 -0.00819254 0.013529529
0.00779747 -0.044475358 -0.0023495958 -0.023127219 0.028914224 0.009681625 0.006112645 -0.011284088
-0.010984419 0.004776935 0.041508604 -0.0056117876 -0.008588321 -0.009185462 -0.13992095 0.026902502
-0.058032516 -0.0021841598 0.029275399 0.012263255 -0.040608406 0.009998583 -0.13101068 -0.031896815
-0.13607895 0.031833235 0.021197598 -0.0047482657 -0.027249156 -0.068152204 -0.010867551 0.020734191
-0.025504246 0.00876311 -0.013068512 -0.030781046 -0.001527943 0.03638002 0.015516383 0.017962802
-0.10147326 -0.0106702 0.012018776 0.034010284 -0.034144457 0.0063693556 0.03044199 -0.0042995517
0.0041571045 0.0049737804 -0.002881804 -0.0011218917 0.01626034 -0.062481374 0.0064203255 -0.012857655
-0.0014126138 0.0037602354 0.0145103065 -0.027985614 -0.0023661586 -0.023396233 -0.0054746466 0.040492382
0.036703147 -0.027805626 0.008449007 0.009822569 0.024956891 0.008293295 -0.016205488 0.011466266
-0.00826312 -0.0064322515 -0.024618948 -0.019064557 -0.11487821 -0.007434098 -0.008254376 -0.008972769
-0.011573402 0.020986976 -0.0009423153 0.040488835 0.0025792152 -0.0034531401 0.0064951666 -0.011108335
-0.009892538 0.02868164 0.16228898 0.011359794 -0.024106141 -0.005298888 -0.0056383307 0.028847463
-0.07981839 -0.005377058 -0.011080186 0.037977304 -0.0036161025 -0.011603731 0.01188854 -0.03944673
0.008931355 -0.04542377 -0.03874544 0.05489125 0.009971636 -0.0056892657 0.029187538 0.030057358
-0.00081549404 0.009147818 0.009476484 0.03241309 -0.049019054 0.06030771 -0.08160828 0.05564703
0.027056914 0.0097263865 -0.105754696 -0.00023309197 -0.019777752 -0.0014758696 0.01196149 -0.013982486
00000000: b85e d0bc f7ef d93b bf85 d3ba 6e73 a33d
00000010: 2b77 90bd bcdd c3bc 9aa4 b03b 2cea 143a
00000020: 062c 5c3d 8546 8e3c 5035 32bd 83bb f73c
00000030: dd30 83bb 55f5 debb d3b0 4d3c 9451 cc3b
00000040: 5e65 81bd 90f1 64bd a679 85bd 03a0 163d
00000050: 1d05 873c 4d39 013b 8525 fd3c 2a86 a5bb
00000060: b272 0ebd e4da 6eba 25bf ba3d 7883 a8bc
00000070: 9104 f63d bc77 a63a 48f2 03be 6727 9cbc
00000080: 8361 283c 3614 a33c 059f adb9 7aac 8c3d
00000090: 8481 ec3c 6bcf 023d 0ed0 53bc b040 863d
000000a0: 37a8 56bc 14b0 5fbd 49de 01bc 9b4e cf3c
000000b0: 4811 c73a bfbb 423c 1732 083d e97b 8bba
000000c0: 26a7 fabc c762 c83c bb50 e63c 7e34 2abc
000000d0: 6d8c 483c 4554 4ebc feff fabb bb60 2a3c
000000e0: 335f 8e3c 7e75 283c b95b 95bc 7522 d4bd
000000f0: 7ab9 0ebc 6750 81bd c586 663b dbe5 813b
00000100: ecc3 81bc 538c a13b 8475 b03c ee53 46bc
00000110: ac9f 95bb 5028 6dbc da47 9d3c 0943 0dbc
00000120: 2d71 cbbb 0ea9 d6bd 9811 883b a6b4 8cbb
00000130: d69a 413b 839b 663d c45c 88bc d2f3 b5bc
00000140: 1d14 9d3c 8f30 a3bd 9bd5 ccbc f9c4 a13c
00000150: 3481 ecba 719e 2a3c d9a2 f73b c047 c9bb
00000160: dd5b fd3c 37db 63ba bd9b a93c 0533 22bc
00000170: 9e89 e73a f132 adbc 0c5c 753b 0ae8 f53c
00000180: aa7d b5bc 62a3 02bc b772 3fbc f284 2b3c
00000190: 44f5 013d 5080 af39 e4ba f5bb 8344 09bc
000001a0: cb35 563b a0e8 863c a0d2 bbbd ad9a 363c
000001b0: 9563 8cbc 716c c6bc 55da 193d 6a3a 6bbb
000001c0: 5964 df3b 7ff1 87bd 85ea 0ebd fbf9 113c
000001d0: ef8e 25bb 1a03 a83d 9f4d 8a3c f999 c03c
000001e0: d3f5 afbc 5792 21bd dae9 b93c 9d9c 9f3b
000001f0: 827e 2b3b 1237 fdbc 013a 06bc f5aa 5d3c
00000200: eb81 ff3b cb2b 36bd adfb 19bb 4b75 bdbc
00000210: 86dd ec3c ae9f 1e3c 954c c83b e5e0 38bc
00000220: fef7 33bc d687 9c3b ed04 2a3d 16e3 b7bb
00000230: 07b6 0cbc 9f7e 16bc 7047 0fbe a362 dc3c
00000240: 81b3 6dbd 1f24 0fbb f6d2 ef3c d2eb 483c
00000250: 0055 26bd 19d1 233c aa27 06be 3ca6 02bd
00000260: 4858 0bbe 9163 023d 96a6 ad3c 5797 9bbb
00000270: 9f39 dfbc 6293 8bbd d00d 32bc c0da a93c
00000280: 48ee d0bc 2693 0f3c 501d 56bc 8828 fcbc
00000290: 4245 c8ba 3703 153d 6d38 7e3c ba26 933c
000002a0: 36d1 cfbd 10d2 2ebc 66ea 443c 5e4e 0b3d
000002b0: 0fdb 0bbd 07b6 d03b 7b61 f93c 41e3 8cbb
000002c0: 5238 883b 18fb a23b a6dc 3cbb 700c 93ba
000002d0: 6834 853c 78ec 7fbd 9861 d23b eaa8 52bc
000002e0: 7427 b9ba 486e 763b a3bc 6d3c 1642 e5bc
000002f0: 8e11 1bbb 75a9 bfbc aa64 b3bb 57db 253d
00000300: 0a56 163d a0c8 e3bc b46d 0a3c d7ee 203c
00000310: 6572 cc3c 9ae0 073c 5fc1 84bc 01dd 3b3c
00000320: 0a62 07bc a3c5 d2bb adad c9bc 462d 9cbc
00000330: 4445 ebbd bc99 f3bb 5d3d 07bc 8502 13bc
00000340: 5e9e 3dbc e1ec ab3c b605 77ba 9fd7 253d
00000350: 0d08 293b 144e 62bb 68d5 d43b bcff 35bc
00000360: 5014 22bc c2f5 ea3c 152f 263e 6e1e 3a3c
00000370: 3e7a c5bc 4ba2 adbb bfc1 b8bb 8451 ec3c
00000380: d377 a3bd 0832 b0bb ab89 35bc 178e 1b3d
00000390: 22fc 6cbb 931d 3ebc 27c8 423c e592 21bd
000003a0: d154 123c 460e 3abd 8ab3 1ebd a6d5 603d
000003b0: 1360 233c 056d babb b41a ef3c d93a f63c
000003c0: e1c6 55ba bbe0 153c 4143 1b3c 97c3 043d
000003d0: 34c8 48bd 3805 773d 3e22 a7bd 24ee 633d
000003e0: 76a6 dd3c 6c5b 1f3c eb95 d8bd 266a 74b9
000003f0: f404 a2bc f771 c1ba 20fa 433c cc16 65bc

functional_5/lstm_6/lstm_cell_6/3845 f4 [512]
-0.3402567 -1.1458721 -0.39660478 -0.2591308 -0.19345951 -0.061584495 -0.3290156 -0.4819214
-0.6621222 -0.22801498 -0.23314685 -0.41713244 -0.65271074 -0.6784772 -0.49741617 -0.69268215
-0.6861427 -0.37687695 -0.28633937 -0.090643086 -0.52439857 -0.60154915 -0.12093323 -0.37360978
-0.44224188 -0.39974576 -0.10231366 -0.4454628 -0.62946874 -0.58528244 -0.37774825 -0.32505038
-0.13931477 -0.48084274 -0.3170132 -0.33037397 -0.41658062 -1.2813247 -0.07301573 -0.2524146
-0.19754659 -0.027608573 -0.50332433 -0.38887316 -0.6849668 -0.25518695 -0.5687839 0.004428482
-0.5219944 -0.30153418 -0.6456432 -0.24105746 -0.4273327 -0.29425427 -0.72117585 -0.48383144
-0.18667072 -0.7734942 -0.52973616 -0.40450394 -0.098410554 -0.5478175 0.21019237 -0.380644
-0.20255959 -0.5915719 -0.6205932 -0.022369208 -0.6759896 0.024885884 -0.094315 -0.6509767
-0.6556089 0.27288905 -0.32165888 -0.46952045 -0.30138168 -1.1674796 -0.020566301 -0.20357388
-0.2164055 -0.47600302 -0.15587449 -0.30563486 -0.7167947 -0.633155 -0.76345956 -0.45073408
-0.21365507 -0.77691513 -0.2968842 -0.27448574 -0.56459 -0.3989039 -0.40184033 -0.0829328
-0.5402222 -0.64754707 -0.49547875 -0.3432086 0.057654336 -0.21810652 -0.5192515 -0.44986844
-0.20647986 0.06399373 -0.3273204 -0.34093103 -0.27085856 -0.42091382 -0.22724228 -0.3264587
-0.36180013 -0.43875954 -0.458593 -0.40810546 -0.26371732 -0.40820864 -0.41122198 -1.0486609
-0.43731377 -0.3297217 -0.2161206 -0.42996767 -0.5731172 -0.5112522 -0.6893946 -0.33480397
0.59744215 1.5255648 0.9503903 0.8139155 -0.21623652 0.44551525 0.32006526 0.998601
0.90320176 0.97273815 0.6588937 0.50149846 0.43113497 0.3969123 0.6659062 0.39767554
1.3999252 0.3344698 0.20149139 0.17892769 0.017207926 0.11202324 -0.035903946 0.5304479
0.24674644 0.4283763 -0.115836225 0.52311885 0.89471346 0.97724056 0.47735068 0.4567093
0.4077617 0.4892363 0.48754257 0.4992784 0.42371508 1.8838354 0.6776204 0.6960982
0.2962432 0.54819584 0.5917954 0.5821136 0.9050447 0.49551407 0.7342767 0.31786683
0.40399885 0.24188623 0.6512756 0.4627232 0.30434713 0.6644485 1.0125405 0.8430663
0.65735185 0.26757306 0.21825458 0.29711157 0.33339345 0.5110023 0.88698554 0.011088488
0.39691156 -0.15270893 0.32166028 0.5651626 0.52192134 0.043741055 0.48687068 0.1326669
0.1161897 0.3067744 0.27864894 0.28090075 0.3671753 1.7916154 0.34905732 0.94693244
0.3184977 0.7410101 0.8474363 0.62830687 0.65646774 0.18598337 0.25876468 0.8651323
0.61411524 1.3519357 0.42047715 0.011117284 0.41037515 0.6338016 0.7982307 0.544867
0.092029326 0.04225897 0.42775616 0.41480553 0.62368435 0.23418653 1.2191873 0.4619574
0.5245882 0.47484145 0.5316624 0.37111828 0.37700197 0.3804954 0.6069004 0.18368171
0.5683883 0.4184656 0.9293604 0.0826986 0.34209025 0.039816927 0.79049355 1.7507782
0.5891192 1.1802771 0.30948845 0.2886054 0.46632826 0.9163199 1.5011947 0.4737639
00000000: 2036 aebe f0ab 92bf c80f cbbe cbac 84be
00000010: 401a 46be 0640 7cbd bc74 a8be 67be f6be
00000020: d780 29bf c27c 69be 0cbe 6ebe 6292 d5be
00000030: 0d18 27bf afb0 2dbf 55ad febe 9e53 31bf
00000040: 0ca7 2fbf 04f6 c0be 139b 92be 15a3 b9bd
00000050: fc3e 06bf 20ff 19bf d7ab f7bd c849 bfbe
00000060: 876d e2be 7aab ccbe d389 d1bd b313 e4be
00000070: dd24 21bf 12d5 15bf 3868 c1be 016d a6be
00000080: 88a8 0ebe 0531 f6be 8e4f a2be c726 a9be
00000090: 0e4a d5be 7302 a4bf 4589 95bd 7d3c 81be
000000a0: a749 4abe 602b e2bc ddd9 00bf 621a c7be
000000b0: fc59 2fbf dda7 82be d29b 11bf cd1c 913b
000000c0: 6da1 05bf b062 9abe df48 25bf c4d7 76be
000000d0: 5acb dabe 7fa8 96be fb9e 38bf c1b8 f7be
000000e0: 9c26 3fbe b703 46bf ca9c 07bf 241b cfbe
000000f0: 798b c9bd c53d 0cbf ab3c 573e c5e3 c2be
00000100: c86b 4fbe 4271 17bf 32df 1ebf a13f b7bc
00000110: a80d 2dbf 7bdd cb3c 3928 c1bd 69a6 26bf
00000120: fcd5 27bf 1db8 8b3e 79b0 a4be fc64 f0be
00000130: b34e 9abe f96f 95bf a97a a8bc ac75 50be
00000140: 6799 5dbe abb6 f3be 909d 1fbe 2c7c 9cbe
00000150: dc7f 37bf 7216 22bf 1672 43bf 9ec6 e6be
00000160: 65c8 5abe e9e3 46bf 3501 98be 6589 8cbe
00000170: f888 10bf 223d ccbe 04be cdbe acd8 a9bd
00000180: 014c 0abf a5c5 25bf 64af fdbe 0ab9 afbe
00000190: f426 6c3d 5157 5fbe abed 04bf 2855 e6be
000001a0: 756f 53be 250f 833d 8a96 a7be 838e aebe
000001b0: f9ad 8abe 0482 d7be 33b2 68be 9825 a7be
000001c0: de3d b9be 17a5 e0be b4cc eabe 33f3 d0be
000001d0: f505 87be b900 d1be b08b d2be 853a 86bf
000001e0: 97e7 dfbe 48d1 a8be b84e 5dbe b924 dcbe
000001f0: cfb7 12bf 6de1 02bf 2a7c 30bf 6d6b abbe
00000200: f8f1 183f b545 c33f c74c 733f c45c 503f
00000210: 1b6d 5dbe 931a e43e 98df a33e 51a4 7f3f
00000220: 3b38 673f 5e05 793f 42ad 283f 3462 003f
00000230: b9bd dc3e 1738 cb3e d478 2a3f 219c cb3e
00000240: c030 b33f a03f ab3e c253 4e3e d238 373e
00000250: a3f7 8c3c 716c e53d 0410 13bd 6fcb 073f
00000260: 19ab 7c3e 2354 db3e 8b3b edbd 1eeb 053f
00000270: f10b 653f 702c 7a3f 4f67 f43e cdd5 e93e
00000280: 24c6 d03e 2e7d fa3e 2e9f f93e 6ba1 ff3e
00000290: 2ff1 d83e 8521 f13f 8878 2d3f 7e33 323f
000002a0: 30ad 973e 9056 0c3f e77f 173f 6605 153f
000002b0: 02b1 673f 05b4 fd3e 8ff9 3b3f 71bf a23e
000002c0: f0d8 ce3e 06b1 773e ffb9 263f 0eea ec3e
000002d0: 63d3 9b3e 4c19 2a3f ed9a 813f 31d3 573f
000002e0: 3648 283f 56ff 883e 217e 5f3e 021f 983e
000002f0: 8cb2 aa3e 0cd1 023f 7c11 633f 7dac 353c
00000300: fe37 cb3e bb5f 1cbe a8b0 a43e 7fae 103f
00000310: a39c 053f d229 333d 1d47 f93e d5d9 073e
00000320: def4 ed3d 8911 9d3e 13ab 8e3e 39d2 8f3e
00000330: 67fe bb3e a753 e53f a4b7 b23e 2a6a 723f
00000340: 2112 a33e d7b2 3d3f 96f1 583f b8d8 203f
00000350: 450e 283f 6d72 3e3e ce7c 843e 4f79 5d3f
00000360: a836 1d3f 3b0c ad3f c848 d73e 4525 363c
00000370: b11c d23e d240 223f d958 4c3f 677c 0b3f
00000380: df79 bc3d be17 2d3d db02 db3e 6461 d43e
00000390: c7a9 1f3f 98ce 6f3e 540e 9c3f ae85 ec3e
000003a0: 6a4b 063f 6b1e f33e 071b 083f 3703 be3e
000003b0: 6706 c13e 4bd0 c23e d35d 1b3f 0f17 3c3e
000003c0: e581 113f 2041 d63e 90ea 6d3f e25d a93d
000003d0: 7426 af3e 1317 233d c95d 4a3f 8019 e03f
000003e0: 84d0 163f 5213 973f 4575 9e3e 16c4 933e
000003f0: 94c2 ee3e f193 6a3f 2627 c03f 2f91 f23e

functional_5/lstm_7/lstm_cell_7/BiasAdd/ReadVariableOp/resource f4 [512]
-0.20667864 -0.5372962 -0.027758323 0.17860799 -0.7301852 -0.5176728 -0.050689463 0.24438624
-0.4236275 -0.12112532 -0.6071394 -0.7470388 -0.7566999 1.8782656 -0.60161436 -0.48018467
-0.22657697 -0.62376654 -0.3010017 -0.7417984 -0.0045445054 -0.017844098 1.5440829 -0.0871533
0.045917977 2.1226628 -0.5158277 -0.44698235 2.2169118 -0.2574094 -0.37406036 0.06106424
-0.2982642 -0.45202622 -0.73113924 -0.3997995 -0.10410322 -0.1668349 -0.58533084 -0.10493101
2.10967 -0.36286166 -0.05308633 -0.5774785 -0.30735883 0.2756745 0.17951514 -0.36149383
-0.1834603 0.024773406 1.923049 -0.34519014 -0.28846723 -0.020272031 -0.19441305 -0.08413343
-0.08032909 -0.36537057 -0.34123918 0.07237546 -0.14216171 2.4383984 -0.3639803 -0.704334
-0.4279077 1.0094213 1.0330323 -0.47992992 0.45471394 0.13596669 1.2315644 -0.5086957
-0.29587072 0.56511766 -0.649259 -0.5165481 -0.42045406 -0.53679335 0.07777498 1.79976
-0.13547066 -0.20846343 0.13645037 0.1601452 -0.3439358 0.8088639 -0.09570861 -0.28479627
1.0362757 -0.4590056 1.479155 -0.09436558 -0.7776931 -0.44487593 -0.15220043 -0.5859139
1.6761844 1.9334882 -0.5547255 -0.75760406 -0.2856356 -0.110017374 -1.2934698 -0.43307087
-0.3237196 -0.48891467 1.8524057 -0.4582699 -0.14919683 -0.56030357 -0.9007137 0.07910397
-0.62090904 -0.020147491 -0.38916633 -0.697419 0.008990281 0.21216632 0.36789757 -0.74994785
-0.38530716 -0.6106651 0.5933542 -0.48567027 -1.0512601 1.9015614 1.5780351 -0.4979513
0.9353301 0.97340083 1.0621547 0.93263674 0.8701892 0.8141116 0.95925957 1.0524701
1.0086254 0.92463857 0.9554137 1.0454689 0.73177844 0.9793062 0.71974367 0.7804885
0.9417295 0.7875995 1.0615544 0.824254 1.02642 1.0277133 1.4305992 1.0202975
0.89032876 0.93741024 1.020508 1.0280273 0.85870004 0.90530026 0.90046805 0.87736034
0.9877119 0.8728373 0.8904024 0.8485024 0.9661217 1.2499955 1.1069752 1.0873821
0.80957556 0.9811958 0.844498 1.2154438 1.3117036 1.0710534 0.9980319 0.6382347
0.97502106 0.94493836 0.90427244 0.9064194 1.1792214 1.0262107 0.9773102 1.0077835
1.0630668 1.0776863 0.98457634 0.9779649 0.99308103 0.13943593 0.84392995 0.8700626
1.2260864 1.1437297 1.2327867 0.75499 0.75161725 0.70774645 0.77586246 0.9117368
1.019901 0.9591726 0.8313275 1.0018648 1.145835 0.9021115 0.97549886 0.8220975
0.9071898 1.0492306 0.9317778 0.9548938 0.9125998 1.0656503 1.0512378 0.79431325
1.3015105 1.0458153 1.0986489 0.99176115 0.8554332 0.91058075 1.0985357 0.76189303
0.90529925 0.93336225 0.96299666 0.53505355 1.0835259 0.9224569 0.82735574 0.91187817
1.0178472 1.2680196 0.9283609 1.1926231 0.7474389 1.2078853 0.8649942 0.96346825
0.9825744 1.00425 1.0426611 0.785995 0.975999 1.1865021 0.7584594 0.8974262
1.0171403 0.7663296 0.9764569 0.94057 0.8671628 1.1521391 1.145081 0.79846126
00000000: 91a3 53be 3e8c 09bf 6c65 e3bc 03e5 363e
00000010: 6bed 3abf 3486 04bf c19f 4fbd 6340 7a3e
00000020: b4e5 d8be 8d10 f8bd 7d6d 1bbf ef3d 3fbf
00000030: 16b7 41bf 026b f03f 6603 1abf c4da f5be
00000040: cb03 68be 2aaf 1fbf e51c 9abe 80e6 3dbf
00000050: 13ea 94bb c92d 92bc 82a4 c53f 6e7d b2bd
00000060: 7d14 3c3d b5d9 0740 490d 04bf dfda e4be
00000070: e2e1 0d40 2acb 83be d784 bfbe 7f1e 7a3d
00000080: 16b6 98be fb6f e7be f12b 3bbf 85b2 ccbe
00000090: 1234 d5bd c5d6 2abe 3ed8 15bf 12e6 d6bd
000000a0: d504 0740 01c9 b9be 0d71 59bd a2d5 13bf
000000b0: 235e 9dbe 3525 8d3e d1d2 373e b815 b9be
000000c0: 04dd 3bbe 99f1 ca3c 7826 f63f c3bc b0be
000000d0: fab1 93be 8811 a6bc 3714 47be 264e acbd
000000e0: 9483 a4bd da11 bbbe e7b6 aebe 9639 943d
000000f0: d792 11be b80e 1c40 a05b babe 3c4f 34bf
00000100: b816 dbbe b834 813f 673a 843f 60b9 f5be
00000110: 44d0 e83e da3a 0b3e e7a3 9d3f e239 02bf
00000120: 5e7c 97be 8dab 103f d635 26bf 7f3c 04bf
00000130: c145 d7be 4a6b 09bf 7d48 9f3d 895e e63f
00000140: d2b8 0abe 7077 55be a5b9 0b3e 1afd 233e
00000150: 5a18 b0be b411 4f3f e002 c4bd d1d0 91be
00000160: afa4 843f c802 ebbe f354 bd3f be42 c1bd
00000170: e516 47bf c7c6 e3be 6eda 1bbe 74fe 15bf
00000180: 368d d63f 8b7c f73f 7e02 0ebf 57f2 41bf
00000190: d43e 92be ca50 e1bd 6b90 a5bf 77bb ddbe
000001a0: 93be a5be 0653 fabe a11b ed3f 5aa2 eabe
000001b0: 0ec7 18be 0e70 0fbf 2c95 66bf 4301 a23d
000001c0: e5f3 1ebf 5a0c a5bc cf40 c7be 0d8a 32bf
000001d0: f94b 133c 2142 593e 125d bc3e 95fc 3fbf
000001e0: fb46 c5be 8c54 1cbf 10e6 173f c6a9 f8be
000001f0: b18f 86bf 5d66 f33f 0efd c93f 79f3 febe
00000200: cb71 6f3f cc30 793f aff4 873f 48c1 6e3f
00000210: b8c4 5e3f 9e69 503f 0992 753f 57b7 863f
00000220: a31a 813f 1db5 6c3f fe95 743f edd1 853f
00000230: d555 3b3f d0b3 7a3f 1f41 383f 18ce 473f
00000240: 2f15 713f 1fa0 493f 04e1 873f 4f02 533f
00000250: bb61 833f 1c8c 833f e01d b73f 1c99 823f
00000260: 96ec 633f 1efa 6f3f 02a0 823f 6696 833f
00000270: c4d3 5b3f c2c1 673f 1385 663f b09a 603f
00000280: b0da 7c3f 4472 5f3f 69f1 633f 7437 593f
00000290: c053 773f daff 9f3f 5db1 8d3f 562f 8b3f
000002a0: 5840 4f3f a62f 7b3f 0531 583f aa93 9b3f
000002b0: e7e5 a73f 4718 893f 057f 7f3f 5963 233f
000002c0: fb9a 793f 7be7 713f 667e 673f 1a0b 683f
000002d0: baf0 963f df5a 833f 0031 7a3f 0dff 803f
000002e0: 9312 883f a0f1 893f 320d 7c3f e85b 7a3f
000002f0: 8f3a 7e3f 4bc8 0e3e cb0b 583f 6cbc 5e3f
00000300: 66f0 9c3f bc65 923f f4cb 9d3f 0647 413f
00000310: fd69 403f df2e 353f ec9e 463f 9567 693f
00000320: 1e8c 823f 568c 753f e1d1 543f 1b3d 803f
00000330: b9aa 923f c7f0 663f 4bba 793f fb74 523f
00000340: 973d 683f 304d 863f fd88 6e3f ec73 743f
00000350: 24a0 693f 3b67 883f f68e 863f 1d58 4b3f
00000360: e597 a63f 47dd 853f 87a0 8c3f 0fe4 7d3f
00000370: acfd 5a3f d21b 693f d19c 8c3f 6c0b 433f
00000380: b1c1 673f d4f0 6e3f f386 763f 45f9 083f
00000390: fab0 8a3f 2326 6c3f 96cd 533f d970 693f
000003a0: d148 823f 774e a23f 0fa9 6d3f e0a7 983f
000003b0: 2858 3f3f fc9b 9a3f 4370 5d3f dba5 763f
000003c0: ff89 7b3f 448b 803f eb75 853f f836 493f
000003d0: 12db 793f 4ddf 973f 652a 423f b9bd 653f
000003e0: a731 823f 2d2e 443f 14f9 793f 32c9 703f
000003f0: 62fe 5d3f 4b79 933f 0492 923f f567 4c3f

functional_5/dense_3/Tensordot/MatMul i1 [256, 128] scale=0.050713953 zero_point=0
0.0 0.0 0.0 0.0 -0.050713953 0.0 0.050713953 0.050713953
0.0 0.050713953 0.0 0.0 0.101427905 0.050713953 -0.25356975 0.050713953
0.0 0.101427905 -0.050713953 -0.050713953 0.101427905 0.0 0.45642558 0.0
-0.050713953 0.25356975 0.0 -0.101427905 -0.3042837 0.0 0.0 0.0
0.0 0.0 -0.050713953 0.101427905 0.050713953 0.0 0.0 0.0
-0.101427905 -0.101427905 -0.15214185 -0.050713953 0.0 0.0 -0.050713953 0.0
0.0 0.0 0.3042837 0.050713953 0.050713953 0.0 0.0 0.0
0.0 -0.050713953 0.0 0.0 0.0 0.55785346 0.0 -0.050713953
0.0 0.0 0.0 0.15214185 -0.20285581 -0.55785346 -0.25356975 0.0
0.0 -0.3042837 0.050713953 0.0 0.0 -0.050713953 0.0 0.15214185
0.0 -0.050713953 0.0 0.050713953 -0.050713953 -0.050713953 0.15214185 0.0
0.3042837 0.15214185 0.25356975 0.0 0.050713953 0.5071395 0.0 -0.101427905
0.25356975 -0.15214185 0.0 0.101427905 0.0 -0.050713953 0.0 -0.050713953
0.0 0.0 -0.15214185 0.050713953 -0.15214185 0.0 0.050713953 0.0
0.0 0.0 0.0 0.050713953 0.0 0.0 -0.45642558 0.050713953
-0.050713953 -0.050713953 0.8621372 -0.050713953 0.050713953 -0.15214185 -0.20285581 0.0
0.050713953 0.0 0.0 0.0 0.0 0.050713953 0.20285581 0.0
-0.20285581 0.15214185 0.050713953 0.0 0.101427905 -0.050713953 -0.15214185 0.35499766
0.0 0.25356975 -0.15214185 -0.050713953 0.35499766 0.0 0.45642558 -0.050713953
-0.050713953 0.3042837 0.0 -0.101427905 -0.15214185 0.101427905 0.0 -0.050713953
-0.050713953 0.050713953 -0.050713953 0.050713953 0.0 0.0 0.050713953 0.0
-0.25356975 -0.20285581 -0.5071395 -0.050713953 0.0 0.0 -0.050713953 -0.15214185
0.0 0.0 0.25356975 0.050713953 0.101427905 0.0 0.0 0.0
0.0 -0.101427905 0.050713953 0.0 -0.050713953 0.40571162 -0.050713953 0.050713953
0.0 0.050713953 0.050713953 0.20285581 -0.25356975 -0.55785346 -0.20285581 0.25356975
0.050713953 -0.5071395 -0.101427905 0.0 0.0 -0.050713953 -0.050713953 0.20285581
0.0 0.0 0.0 -0.101427905 0.0 0.0 0.3042837 -0.050713953
0.3042837 0.20285581 0.25356975 0.0 0.050713953 0.6085674 0.0 0.050713953
0.45642558 -0.20285581 0.050713953 0.15214185 0.0 -0.101427905 0.0 -0.050713953
0.050713953 0.0 -0.20285581 0.050713953 -0.3042837 0.0 -0.050713953 -0.050713953
0.050713953 0.050713953 -0.050713953 0.050713953 0.0 0.0 -0.5071395 0.101427905
-0.050713953 -0.15214185 1.064993 0.050713953 -0.050713953 -0.15214185 -0.15214185 -0.15214185
00000000: 0000 0000 ff00 0101 0001 0000 0201 fb01
00000010: 0002 ffff 0200 0900 ff05 00fe fa00 0000
00000020: 0000 ff02 0100 0000 fefe fdff 0000 ff00
00000030: 0000 0601 0100 0000 00ff 0000 000b 00ff
00000040: 0000 0003 fcf5 fb00 00fa 0100 00ff 0003
00000050: 00ff 0001 ffff 0300 0603 0500 010a 00fe
00000060: 05fd 0002 00ff 00ff 0000 fd01 fd00 0100
00000070: 0000 0001 0000 f701 ffff 11ff 01fd fc00
00000080: 0100 0000 0001 0400 fc03 0100 02ff fd07
00000090: 0005 fdff 0700 09ff ff06 00fe fd02 00ff
000000a0: ff01 ff01 0000 0100 fbfc f6ff 0000 fffd
000000b0: 0000 0501 0200 0000 00fe 0100 ff08 ff01
000000c0: 0001 0104 fbf5 fc05 01f6 fe00 00ff ff04
000000d0: 0000 00fe 0000 06ff 0604 0500 010c 0001
000000e0: 09fc 0103 00fe 00ff 0100 fc01 fa00 ffff
000000f0: 0101 ff01 0000 f602 fffd 1501 fffd fdfd

functional_5/lstm_7/lstm_cell_7/MatMul i1 [512, 128] scale=0.019754425 zero_point=0
-0.059263274 0.0 -0.059263274 -0.1580354 0.019754425 -0.17778982 -0.03950885 0.059263274
0.0 0.09877212 -0.21729867 0.03950885 0.09877212 0.11852655 -0.03950885 -0.019754425
0.03950885 0.0 -0.03950885 0.09877212 -0.13828097 -0.019754425 -0.2370531 -0.019754425
0.0790177 -0.019754425 0.059263274 0.0790177 0.0790177 0.03950885 -0.13828097 -0.0790177
-0.0790177 0.059263274 0.059263274 -0.2370531 0.0 0.059263274 0.19754425 0.0
0.0790177 -0.059263274 0.2568075 -0.11852655 0.03950885 -0.19754425 0.17778982 0.059263274
-0.11852655 0.11852655 0.0790177 0.19754425 0.13828097 0.019754425 -0.2370531 0.059263274
-0.03950885 0.059263274 -0.17778982 0.09877212 0.03950885 -0.059263274 0.019754425 -0.11852655
-0.019754425 -0.019754425 -0.09877212 -0.019754425 0.17778982 -0.13828097 0.019754425 0.09877212
0.1580354 0.11852655 0.19754425 -0.059263274 0.03950885 -0.13828097 0.03950885 0.019754425
0.03950885 0.17778982 -0.09877212 0.0 0.059263274 0.0 0.13828097 -0.11852655
0.059263274 -0.0790177 -0.019754425 0.11852655 -0.0790177 0.0 -0.1580354 0.13828097
0.13828097 0.19754425 0.11852655 -0.03950885 -0.0790177 -0.03950885 -0.17778982 0.0
0.09877212 0.09877212 0.1580354 0.09877212 0.0 -0.11852655 -0.11852655 -0.059263274
0.019754425 -0.03950885 0.0 0.03950885 -0.17778982 0.17778982 0.03950885 -0.35557964
0.059263274 0.11852655 0.13828097 -0.11852655 0.019754425 -0.03950885 -0.13828097 0.0
0.5926328 0.019754425 0.1580354 -0.6321416 0.4741062 1.9359336 -0.0790177 0.13828097
0.019754425 -0.6321416 -0.3950885 0.03950885 -0.11852655 0.6321416 -0.5926328 0.8889491
0.0 0.3160708 -0.019754425 0.37533408 -0.5728783 0.19754425 0.6716504 0.1580354
0.5333695 0.6123872 0.13828097 0.5333695 -0.03950885 -0.019754425 -0.6321416 0.019754425
-0.21729867 0.03950885 0.43459734 0.019754425 -0.4741062 -0.0790177 0.0 -0.4938606
-0.0790177 0.37533408 -0.019754425 0.3160708 0.1580354 -0.11852655 -0.45435178 -0.2370531
0.19754425 0.5531239 -0.4741062 -0.0790177 0.0 -0.37533408 -0.0790177 0.19754425
0.0790177 -0.3160708 -0.6321416 -0.2568075 0.5926328 -0.8494403 0.4938606 -0.27656195
-0.1580354 0.3358252 0.43459734 -0.4741062 0.21729867 1.0469846 -0.2568075 -0.27656195
0.3160708 0.13828097 0.19754425 -0.0790177 -0.3950885 0.3160708 -0.19754425 -0.09877212
-1.0864934 0.1580354 -0.4938606 0.03950885 0.8296858 -1.1457566 -0.4148429 -0.5531239
-0.7309137 -0.6123872 -0.13828097 0.2963164 0.3160708 0.3358252 -0.0790177 0.4938606
-0.513615 -0.9482124 0.0 0.019754425 -0.2370531 0.0790177 0.13828097 0.059263274
0.019754425 -0.27656195 -0.059263274 -0.2568075 0.03950885 -0.17778982 0.45435178 -0.09877212
0.43459734 -0.0790177 0.17778982 -0.790177 -0.8691947 0.2370531 -0.4938606 -0.19754425
0.0 -0.059263274 0.3950885 0.2963164 0.019754425 -0.1580354 0.27656195 0.43459734
00000000: fd00 fdf8 01f7 fe03 0005 f502 0506 feff
00000010: 0200 fe05 f9ff f4ff 04ff 0304 0402 f9fc
00000020: fc03 03f4 0003 0a00 04fd 0dfa 02f6 0903
00000030: fa06 040a 0701 f403 fe03 f705 02fd 01fa
00000040: ffff fbff 09f9 0105 0806 0afd 02f9 0201
00000050: 0209 fb00 0300 07fa 03fc ff06 fc00 f807
00000060: 070a 06fe fcfe f700 0505 0805 00fa fafd
00000070: 01fe 0002 f709 02ee 0306 07fa 01fe f900
00000080: 1e01 08e0 1862 fc07 01e0 ec02 fa20 e22d
00000090: 0010 ff13 e30a 2208 1b1f 071b feff e001
000000a0: f502 1601 e8fc 00e7 fc13 ff10 08fa e9f4
000000b0: 0a1c e8fc 00ed fc0a 04f0 e0f3 1ed5 19f2
000000c0: f811 16e8 0b35 f3f2 1007 0afc ec10 f6fb
000000d0: c908 e702 2ac6 ebe4 dbe1 f90f 1011 fc19
000000e0: e6d0 0001 f404 0703 01f2 fdf3 02f7 17fb
000000f0: 16fc 09d8 d40c e7f6 00fd 140f 01f8 0e16

functional_5/lstm_7/lstm_cell_7/MatMul_1 i1 [512, 128] scale=0.057570994 zero_point=0
0.63328093 0.0 0.34542596 -0.63328093 0.23028398 0.63328093 0.28785497 0.7484229
0.57570994 0.0 0.28785497 0.17271298 -0.6908519 -0.46056795 0.0 -1.3817039
0.63328093 -0.057570994 0.46056795 0.23028398 0.0 -0.63328093 -0.11514199 -0.23028398
0.23028398 0.057570994 -0.23028398 0.63328093 0.0 0.51813895 -0.23028398 0.0
0.0 0.0 -0.23028398 0.057570994 0.63328093 -0.17271298 -0.23028398 -0.11514199
0.0 0.17271298 1.7847009 0.7484229 -0.51813895 -0.6908519 0.057570994 0.40299696
-0.17271298 0.17271298 0.0 -0.8059939 -0.46056795 -0.28785497 0.11514199 -0.23028398
-0.51813895 0.0 -0.34542596 -0.057570994 0.40299696 0.23028398 0.23028398 0.34542596
0.0 0.40299696 0.0 -0.9787069 0.0 0.57570994 -0.057570994 -0.34542596
-0.11514199 -0.23028398 0.11514199 -0.17271298 0.0 0.8635649 0.57570994 0.0
-0.11514199 -0.23028398 -0.28785497 -0.057570994 0.63328093 -0.6908519 -0.46056795 0.6908519
-0.17271298 -0.46056795 0.0 0.28785497 0.057570994 -0.11514199 -0.11514199 -0.34542596
0.057570994 -0.057570994 -0.17271298 0.0 0.57570994 0.17271298 0.46056795 -0.17271298
0.51813895 -0.17271298 0.0 -0.40299696 0.17271298 0.0 -0.17271298 0.34542596
-0.057570994 0.057570994 -0.28785497 0.40299696 0.057570994 -0.057570994 0.8635649 -0.17271298
0.17271298 1.2089908 -1.7847009 -0.28785497 0.0 -0.17271298 0.057570994 0.17271298
0.17271298 0.8635649 -0.057570994 -2.1301267 -0.057570994 -0.46056795 1.2089908 -0.11514199
-0.46056795 -0.40299696 0.8059939 0.057570994 0.057570994 0.9787069 -0.17271298 0.23028398
-0.8059939 0.28785497 -0.11514199 0.11514199 0.40299696 -0.9211359 0.46056795 -0.40299696
0.17271298 0.23028398 -0.23028398 0.9211359 -0.23028398 0.51813895 -0.28785497 -1.0362779
0.28785497 -0.057570994 0.17271298 -0.11514199 -0.23028398 -0.46056795 -0.40299696 -0.7484229
-0.28785497 -0.23028398 0.057570994 -2.2452688 0.0 -0.34542596 -0.6908519 0.40299696
0.34542596 -0.28785497 0.17271298 -1.7847009 -0.28785497 -0.57570994 1.8422718 1.3241329
0.46056795 -0.11514199 0.11514199 0.057570994 -0.23028398 0.6908519 -0.34542596 0.8635649
-0.6908519 0.63328093 0.0 -0.17271298 -0.17271298 0.0 -0.17271298 0.057570994
0.057570994 0.63328093 0.40299696 -0.11514199 0.11514199 0.057570994 -1.6119878 0.17271298
0.6908519 0.23028398 0.17271298 0.63328093 -1.1514199 -0.23028398 -0.057570994 0.23028398
-1.1514199 0.9787069 0.23028398 -0.057570994 0.46056795 0.057570994 0.7484229 0.7484229
-0.17271298 -0.34542596 -0.8635649 0.17271298 1.7271298 -0.057570994 -0.28785497 0.51813895
1.2665619 0.057570994 -0.23028398 0.57570994 0.0 0.57570994 -0.23028398 -0.23028398
-0.057570994 -0.46056795 -0.11514199 -0.17271298 0.6908519 0.46056795 0.23028398 0.34542596
0.46056795 0.6908519 0.34542596 -0.40299696 0.057570994 -0.7484229 -0.17271298 0.8635649
00000000: 0b00 06f5 040b 050d 0a00 0503 f4f8 00e8
00000010: 0bff 0804 00f5 fefc 0401 fc0b 0009 fc00
00000020: 0000 fc01 0bfd fcfe 0003 1f0d f7f4 0107
00000030: fd03 00f2 f8fb 02fc f700 faff 0704 0406
00000040: 0007 00ef 000a fffa fefc 02fd 000f 0a00
00000050: fefc fbff 0bf4 f80c fdf8 0005 01fe fefa
00000060: 01ff fd00 0a03 08fd 09fd 00f9 0300 fd06
00000070: ff01 fb07 01ff 0ffd 0315 e1fb 00fd 0103
00000080: 030f ffdb fff8 15fe f8f9 0e01 0111 fd04
00000090: f205 fe02 07f0 08f9 0304 fc10 fc09 fbee
000000a0: 05ff 03fe fcf8 f9f3 fbfc 01d9 00fa f407
000000b0: 06fb 03e1 fbf6 2017 08fe 0201 fc0c fa0f
000000c0: f40b 00fd fd00 fd01 010b 07fe 0201 e403
000000d0: 0c04 030b ecfc ff04 ec11 04ff 0801 0d0d
000000e0: fdfa f103 1eff fb09 1601 fc0a 000a fcfc
000000f0: fff8 fefd 0c08 0406 080c 06f9 01f3 fd0f

MatMul;functional_5/lstm_6/lstm_cell_6/StatefulPartitionedCall/MatMul i1 [512, 256] scale=0.018044006 zero_point=0
0.018044006 -0.10826404 -0.25261608 0.12630804 0.19848406 0.16239606 0.072176024 -0.16239606
0.0 -0.19848406 -0.12630804 0.0 0.090220034 0.12630804 -0.5593642 -0.48718816
0.19848406 0.10826404 0.14435205 -0.19848406 0.5413202 -0.072176024 -0.48718816 0.2887041
-0.18044007 -0.37892413 0.2706601 -0.072176024 -0.16239606 -0.23457208 -0.10826404 0.2706601
-0.5954522 0.018044006 0.018044006 0.090220034 -0.36088014 -0.05413202 0.41501215 -0.19848406
0.0 0.2706601 -0.10826404 0.2706601 -0.48718816 0.018044006 0.036088012 -0.46914417
-0.12630804 -0.45110014 0.14435205 0.16239606 -0.036088012 -0.6676282 -0.21652807 -0.090220034
0.05413202 0.036088012 -0.19848406 0.23457208 0.018044006 -0.2706601 0.41501215 0.14435205
0.25261608 0.10826404 -0.50523216 0.14435205 -0.25261608 0.2887041 0.05413202 0.2706601
-0.8480683 0.46914417 0.16239606 -0.41501215 -0.45110014 -0.45110014 0.2706601 0.05413202
0.3428361 0.14435205 -0.090220034 -0.5413202 0.45110014 0.05413202 0.25261608 -0.16239606
0.21652807 -0.16239606 0.036088012 -0.45110014 -0.37892413 0.14435205 0.036088012 0.090220034
-0.14435205 0.21652807 0.32479212 0.072176024 -0.21652807 -0.48718816 -0.018044006 0.14435205
0.3067481 0.18044007 -0.43305615 0.19848406 0.12630804 -0.3067481 0.036088012 0.36088014
0.036088012 0.10826404 0.036088012 -0.21652807 -0.3428361 -0.090220034 -0.10826404 0.018044006
0.05413202 -0.52327615 -0.21652807 0.0 -0.25261608 0.39696813 0.12630804 -0.12630804
-0.036088012 -0.090220034 0.41501215 -0.46914417 0.3428361 0.0 -0.32479212 0.2887041
0.21652807 -0.5774082 0.39696813 -0.036088012 -0.05413202 -0.072176024 0.090220034 0.6856722
0.43305615 0.37892413 -0.10826404 0.10826404 -0.10826404 -0.32479212 0.14435205 -0.23457208
0.0 -0.21652807 0.0 -0.50523216 0.036088012 -0.21652807 0.16239606 0.32479212
-0.072176024 0.05413202 0.25261608 0.16239606 0.14435205 -0.3067481 -0.036088012 0.19848406
-0.05413202 0.0 -0.25261608 0.090220034 0.16239606 -0.05413202 0.018044006 0.7037162
0.018044006 0.23457208 0.16239606 0.14435205 0.05413202 0.2887041 0.25261608 -0.73980427
-0.3428361 0.14435205 -0.43305615 0.036088012 -0.072176024 0.14435205 -0.12630804 -0.10826404
-0.05413202 0.2706601 0.10826404 0.018044006 -0.3428361 -0.072176024 0.23457208 0.018044006
0.37892413 0.52327615 0.0 0.05413202 -0.41501215 -0.036088012 0.45110014 -0.036088012
-0.43305615 0.36088014 -0.090220034 -0.12630804 -0.090220034 0.5593642 0.018044006 0.45110014
-0.16239606 -0.12630804 0.036088012 0.05413202 -0.10826404 -0.10826404 0.0 0.2887041
0.018044006 0.10826404 -0.23457208 0.0 0.5774082 0.5954522 -0.19848406 -0.036088012
0.3428361 -0.16239606 0.19848406 0.25261608 0.32479212 -0.37892413 -0.090220034 -0.14435205
-0.36088014 0.36088014 -0.39696813 0.05413202 0.12630804 0.05413202 -0.19848406 -0.2706601
-0.32479212 0.090220034 0.19848406 -0.05413202 -0.23457208 0.36088014 0.21652807 0.32479212
00000000: 01fa f207 0b09 04f7 00f5 f900 0507 e1e5
00000010: 0b06 08f5 1efc e510 f6eb 0ffc f7f3 fa0f
00000020: df01 0105 ecfd 17f5 000f fa0f e501 02e6
00000030: f9e7 0809 fedb f4fb 0302 f50d 01f1 1708
00000040: 0e06 e408 f210 030f d11a 09e9 e7e7 0f03
00000050: 1308 fbe2 1903 0ef7 0cf7 02e7 eb08 0205
00000060: f80c 1204 f4e5 ff08 110a e80b 07ef 0214
00000070: 0206 02f4 edfb fa01 03e3 f400 f216 07f9
00000080: fefb 17e6 1300 ee10 0ce0 16fe fdfc 0526
00000090: 1815 fa06 faee 08f3 00f4 00e4 02f4 0912
000000a0: fc03 0e09 08ef fe0b fd00 f205 09fd 0127
000000b0: 010d 0908 0310 0ed7 ed08 e802 fc08 f9fa
000000c0: fd0f 0601 edfc 0d01 151d 0003 e9fe 19fe
000000d0: e814 fbf9 fb1f 0119 f7f9 0203 fafa 0010
000000e0: 0106 f300 2021 f5fe 13f7 0b0e 12eb fbf8
000000f0: ec14 ea03 0703 f5f1 ee05 0bfd f314 0c12

MatMul_1;functional_5/lstm_6/lstm_cell_6/StatefulPartitionedCall/MatMul_1 i1 [512, 128] scale=0.017750252 zero_point=0
1.2247674 -0.39050555 0.07100101 -0.035500504 0.10650151 -0.3017543 0.017750252 -0.17750251
0.19525278 0.14200202 0.053250756 -0.14200202 -0.07100101 0.0 0.69225985 0.56800807
-0.15975226 0.0 0.035500504 -0.26625377 0.07100101 -0.35500503 -0.08875126 -0.51475734
0.71001005 -0.4792568 0.21300302 -0.23075327 0.28400403 0.26625377 -0.3017543 0.17750251
-0.15975226 -0.035500504 0.035500504 0.0 0.71001005 0.24850354 -0.46150655 -0.21300302
-0.15975226 0.053250756 -0.19525278 -0.10650151 -0.12425177 -0.14200202 -0.15975226 0.08875126
-0.21300302 -0.10650151 0.17750251 0.15975226 -0.053250756 0.3017543 -0.26625377 -0.08875126
0.28400403 0.035500504 -0.6567593 0.46150655 -0.35500503 0.12425177 0.14200202 0.4437563
-0.12425177 -0.53250754 0.23075327 -0.3017543 0.23075327 -0.35500503 -0.5502578 -0.24850354
-0.14200202 0.3372548 0.035500504 0.035500504 -0.46150655 -0.3727553 -0.51475734 0.35500503
0.3727553 0.53250754 -0.46150655 -0.31950453 0.21300302 0.49700707 -0.21300302 0.035500504
-0.26625377 0.26625377 0.24850354 -0.017750252 -0.053250756 -0.21300302 -0.3727553 -0.46150655
-0.28400403 0.39050555 0.3017543 0.10650151 0.4792568 -0.14200202 0.07100101 0.23075327
0.21300302 -0.19525278 -0.28400403 -0.035500504 -0.053250756 -0.21300302 -0.053250756 0.4082558
0.79876137 -0.08875126 0.15975226 -0.14200202 -0.17750251 0.31950453 -0.46150655 -0.3727553
0.4082558 0.3727553 0.21300302 0.23075327 -0.23075327 0.4792568 -0.017750252 -0.14200202
-0.17750251 -0.14200202 0.4082558 0.08875126 0.053250756 -0.7455106 0.17750251 -0.21300302
-0.017750252 0.0 -0.5502578 -0.10650151 0.53250754 0.56800807 -0.17750251 0.39050555
-0.46150655 0.26625377 0.4082558 0.35500503 -0.3372548 -0.12425177 -0.3727553 0.12425177
-0.12425177 0.23075327 -0.10650151 0.14200202 0.053250756 0.21300302 -0.7277603 -0.08875126
-0.07100101 0.51475734 0.21300302 -0.08875126 0.5502578 -1.0650151 0.51475734 0.4082558
-0.07100101 0.53250754 0.28400403 -0.5857583 -0.23075327 -0.49700707 -0.56800807 -0.21300302
-0.23075327 -0.19525278 0.26625377 0.24850354 -0.17750251 0.5857583 -0.07100101 0.17750251
-0.6212588 -0.24850354 -0.51475734 -0.053250756 0.07100101 0.24850354 0.017750252 0.053250756
-0.21300302 -0.053250756 -0.017750252 0.35500503 0.035500504 -0.6035086 -0.56800807 -0.17750251
0.19525278 0.46150655 -0.12425177 -0.5502578 0.14200202 0.053250756 0.15975226 0.21300302
-0.46150655 0.51475734 -0.5502578 0.24850354 0.10650151 0.017750252 -0.6745096 -0.017750252
0.46150655 -0.23075327 -0.17750251 -0.31950453 0.14200202 0.035500504 -0.9230131 0.42600605
-0.053250756 -0.15975226 0.69225985 0.4082558 -0.46150655 -0.14200202 -0.6035086 0.35500503
0.23075327 0.4792568 -0.15975226 0.07100101 -0.10650151 0.46150655 -0.99401414 -0.035500504
-0.14200202 -0.21300302 0.83426183 0.017750252 -0.10650151 -0.3017543 -0.6212588 0.63900906
-0.15975226 0.6212588 -0.28400403 0.17750251 -0.053250756 0.3017543 0.49700707 -0.4437563
00000000: 45ea 04fe 06ef 01f6 0b08 03f8 fc00 2720
00000010: f700 02f1 04ec fbe3 28e5 0cf3 100f ef0a
00000020: f7fe 0200 280e e6f4 f703 f5fa f9f8 f705
00000030: f4fa 0a09 fd11 f1fb 1002 db1a ec07 0819
00000040: f9e2 0def 0dec e1f2 f813 0202 e6eb e314
00000050: 151e e6ee 0c1c f402 f10f 0eff fdf4 ebe6
00000060: f016 1106 1bf8 040d 0cf5 f0fe fdf4 fd17
00000070: 2dfb 09f8 f612 e6eb 1715 0c0d f31b fff8
00000080: f6f8 1705 03d6 0af4 ff00 e1fa 1e20 f616
00000090: e60f 1714 edf9 eb07 f90d fa08 030c d7fb
000000a0: fc1d 0cfb 1fc4 1d17 fc1e 10df f3e4 e0f4
000000b0: f3f5 0f0e f621 fc0a ddf2 e3fd 040e 0103
000000c0: f4fd ff14 02de e0f6 0b1a f9e1 0803 090c
000000d0: e61d e10e 0601 daff 1af3 f6ee 0802 cc18
000000e0: fdf7 2717 e6f8 de14 0d1b f704 fa1a c8fe
000000f0: f8f4 2f01 faef dd24 f723 f00a fd11 1ce7
